ae_weights.npz (npz, 15262 bytes, 12 tensors)

e1_W f4 [11, 30]
0	0x3dfd28b1	0.12361277
1	0x3c72e718	0.014825605
2	0x3eabb760	0.33538342
3	0x3d373658	0.04472956
4	0xbe2d7ad4	-0.16941386
5	0x3e23c8b7	0.15994535
6	0x3eee1549	0.46500614
7	0x3e9f4408	0.3110659
8	0xbec44f3a	-0.38341695
9	0xbf067416	-0.52520883
10	0xbe46ffa2	-0.19433454
11	0x3d34e70c	0.044165656
12	0xbf849dcf	-1.0360659
13	0xbdbf1071	-0.09329308
14	0xbf153f87	-0.5830006
15	0xbe7b514e	-0.24542734
16	0xbe6da47f	-0.23207282
17	0xbe51c72a	-0.20486131
18	0x3e5dd816	0.21664461
19	0x3eec2277	0.46120045
20	0xbd607db0	-0.054807365
21	0x3f104162	0.56349766
22	0xbe913942	-0.28363997
23	0x3e6bdc26	0.23033199
24	0x3e081944	0.13290888
25	0x3e09e993	0.13468008
26	0xbea2eba1	-0.31820396
27	0xbeca7f38	-0.39550185
28	0xbe81e4ce	-0.25369877
29	0x3d9f497a	0.077776864
30	0xbec80ccf	-0.39072272
31	0xbe6aaff6	-0.22918686
32	0xbd8d8e87	-0.069119506
33	0x3e6c26f3	0.23061733
34	0x3df4cf97	0.11953657
35	0x3e60d983	0.21957974
36	0xbebc3d4f	-0.36765525
37	0xbe00b269	-0.12568058
38	0x3ed262ae	0.41090912
39	0x3f1e608d	0.61866075
40	0xbf0a1edd	-0.53953344
41	0x3f223290	0.633584
42	0x3f0e1f9b	0.55516976
43	0x3eaa92f0	0.3331523
44	0x3d75b96a	0.059991278
45	0xbdb293f1	-0.08719624
46	0x3f1f27df	0.62170213
47	0x3f46038a	0.7734915
48	0x3f5d45ed	0.86434823
49	0x3f038f23	0.51390284
50	0x3e1c0b79	0.15238751
51	0xbf08cde8	-0.5343919
52	0xbaf8f036	-0.0018992487
53	0x3ebd0693	0.36919078
54	0xbf15be74	-0.58493733
55	0x3e7400c1	0.23828413
56	0x3d3cac54	0.046062782
57	0x3e902399	0.2815216
58	0xbee73427	-0.45156977
59	0xbebfb298	-0.37440944
60	0xbe12bac4	-0.14329058
61	0xbf061ed4	-0.5239079
62	0x3f3027cf	0.68810743
63	0xbe588832	-0.21145704
64	0x3de809c6	0.11329989
65	0xbdbd63b3	-0.09247532
66	0x3f1107d1	0.5665255
67	0x3f05c58c	0.5225456
68	0x3edbc90c	0.42926824
69	0xbf4441b0	-0.7666273
70	0x3d3b5ebd	0.045744646
71	0x3e5d2b00	0.21598434
72	0x3ed9c093	0.42529735
73	0xbe86e663	-0.26347646
74	0x3f39f2fe	0.726364
75	0xbf0426b1	-0.5162154
76	0xbe906c55	-0.2820765
77	0x3eb27094	0.34851515
78	0x3ddb8047	0.10717826
79	0x3f48f4c7	0.784985
80	0x3da4a0d0	0.08038485
81	0xbe806ceb	-0.25083098
82	0xbe24db83	-0.16099362
83	0xbeee2857	-0.46515152
84	0xbf065b8e	-0.5248345
85	0x3e86d9f9	0.26338175
86	0xbce36c77	-0.027761681
87	0x3f0540aa	0.52051795
88	0xbe24f965	-0.16110761
89	0x3f1ff94a	0.6248976
90	0xbdffddc2	-0.12493469
91	0x3f348a6b	0.7052371
92	0xbe67cdf3	-0.22637157
93	0xbea091a3	-0.31361112
94	0x3da7952d	0.0818275
95	0x3ee9b6dc	0.45647323
96	0xbdaa8d24	-0.08327702
97	0xbe958641	-0.2920399
98	0xbed3321f	-0.41249177
99	0xbeaddf73	-0.3395954
100	0x3e81ce75	0.25352827
101	0x3e8083e8	0.25100636
102	0xbdb67911	-0.0890981
103	0xbeea8d7d	-0.45811072
104	0x3ea5d619	0.32389906
105	0xbf0905d5	-0.53524524
106	0xbe9bacde	-0.30405325
107	0x3e73dd98	0.23815
108	0xbf5f4ee7	-0.8722977
109	0x3dd738dd	0.10508893
110	0xbe7df6fc	-0.24801248
111	0x3d86ae31	0.06576193
112	0xbd04373c	-0.032279238
113	0x3d3d4ed7	0.046217766
114	0x3e5086d2	0.2036393
115	0xbeca0ff2	-0.3946529
116	0x3ee46fa1	0.44616416
117	0x3e8eba55	0.27876535
118	0x3f06285c	0.52405334
119	0x3ec56669	0.38554695
120	0x3ea04ef8	0.31310248
121	0x3ea754fb	0.32682022
122	0x3cce469b	0.025180152
123	0xbf1bbeb0	-0.6083784
124	0xbd6f80cf	-0.05847245
125	0xbe8cf20d	-0.2752842
126	0xbf35795a	-0.7088829
127	0x3de916c5	0.11381296
128	0xbe14a7af	-0.14517091
129	0xbeacd3b3	-0.33755264
130	0xbedf5c75	-0.43625227
131	0xbc8a7aa5	-0.016904185
132	0x3e39e265	0.18152769
133	0x3f105b9b	0.5638978
134	0xbd55ef0e	-0.052229933
135	0x3ee21327	0.44155237
136	0x3f1911cb	0.59792775
137	0x3efdde84	0.49583828
138	0xbf6c8385	-0.9238818
139	0x3edaa777	0.4270589
140	0x3e144a3e	0.14481446
141	0x3e4ca894	0.19986182
142	0x3e221746	0.1582919
143	0x3e324da2	0.17412427
144	0x3cbb39e9	0.022854762
145	0xbe098489	-0.13429464
146	0xbf480d0f	-0.78144926
147	0xbc9f3f4d	-0.019439364
148	0xbe4967f7	-0.19668566
149	0x3ecf8f4b	0.4053901
150	0xbdbc2778	-0.091872156
151	0x3d3d8190	0.04626614
152	0xbea2b7d6	-0.3178088
153	0xbe5ef4a7	-0.21773015
154	0xbbc10225	-0.005890148
155	0xbf1af98f	-0.60537046
156	0x3e19de4f	0.1502621
157	0xbd8ed5cf	-0.069743745
158	0xbeeb4261	-0.4594908
159	0xbf7b75c6	-0.98226583
160	0x3e82fc77	0.2558324
161	0xbe477c03	-0.194809
162	0xbe5e10b1	-0.21686055
163	0xbdce3a0f	-0.100696675
164	0x3f3acda4	0.7297003
165	0xbb70976a	-0.0036711344
166	0x3d1748b6	0.036934577
167	0xbf1e7735	-0.61900645
168	0x3f43b715	0.76451236
169	0x3ea3ea4e	0.32014698
170	0x3ee8ee3b	0.45494255
171	0x3d21c344	0.03949286
172	0x3ec81f2f	0.3908629
173	0x3e483826	0.19552669
174	0x3e3d30ac	0.18475598
175	0x3d5e3f62	0.054259665
176	0xbf009359	-0.50224835
177	0x3f01468a	0.5049826
178	0xbf33d857	-0.70251983
179	0xbdd0be35	-0.10192529
180	0xbcc27964	-0.023739524
181	0xbed0882c	-0.4072889
182	0x3eb2841c	0.34866416
183	0xbdaef123	-0.08542087
184	0xbe2df7a2	-0.16988996
185	0x3e79b1e3	0.24384265
186	0xbd9c0078	-0.07617277
187	0x3f067f6c	0.5253818
188	0x3e0c8b49	0.13725008
189	0xbe11db95	-0.1424392
190	0xbf36e008	-0.71435595
191	0xbf10c098	-0.56543875
192	0x3ee36a88	0.44417214
193	0xbcb0c39a	-0.021577645
194	0xbe27d1b3	-0.16388588
195	0x3f38d0cb	0.7219359
196	0xbf0c032d	-0.54692346
197	0xbe7b1cd9	-0.24522723
198	0xbe512521	-0.2042432
199	0x3e7a2ad3	0.24430399
200	0xbe90dc83	-0.28293237
201	0xbe7836fc	-0.24239725
202	0xbf2f3754	-0.684438
203	0x3eb211fa	0.3477934
204	0x3e9ce512	0.30643517
205	0xbd8e20a0	-0.069398165
206	0x3e926753	0.28594455
207	0xbf043369	-0.51640946
208	0xbde2be47	-0.11071449
209	0x3f274ebe	0.65354526
210	0x3dc63168	0.09677392
211	0x3f80b583	1.0055393
212	0xbe881854	-0.2658106
213	0x3e7d5f5e	0.24743411
214	0xbd4028d9	-0.046913955
215	0x3e90ecbe	0.2830562
216	0x3def8d65	0.11696891
217	0xbe8f9ed8	-0.28050876
218	0xbec9e7b9	-0.39434603
219	0x3fb340ff	1.400421
220	0x3d749971	0.059716646
221	0xbf683069	-0.9069887
222	0xbe8703bf	-0.26370046
223	0x3e940728	0.2891171
224	0xbe82e155	-0.2556254
225	0x3f17af8e	0.5925225
226	0x3edad754	0.42742407
227	0xbd9c0663	-0.07618406
228	0xbe91e639	-0.28495958
229	0xbed6f82b	-0.41986212
230	0xbe98d0a2	-0.29846674
231	0xbf1be676	-0.6089853
232	0x3f03786d	0.5135563
233	0x3f31cb3a	0.69450724
234	0xbf10b377	-0.5652384
235	0xbedb2e64	-0.4280883
236	0xbf1c5580	-0.6106796
237	0xbee2a705	-0.4426805
238	0xbf9df577	-1.2340535
239	0xbebdb3e3	-0.37051305
240	0x3f101201	0.5627747
241	0xbe0bbb63	-0.13645701
242	0x3ecd9db3	0.40159377
243	0xbe558044	-0.2084971
244	0x3f4d0c93	0.8009731
245	0x3e0e4ac4	0.13895708
246	0xbd9e016f	-0.07715117
247	0x3f8c83b2	1.097769
248	0xbd730be5	-0.059337515
249	0xbecd9e2f	-0.40159747
250	0x3e012a33	0.12613754
251	0xbdcaf0e9	-0.09909231
252	0x3f0377b1	0.5135451
253	0xbec93577	-0.39298603
254	0x3e9a2fb0	0.30114508
255	0x3ebe486f	0.37164637

e1_b f4 [30]
0	0xbc65078f	-0.013978853
1	0xbb8abbb8	-0.0042338036
2	0x3c58e6ce	0.013238622
3	0x00000000	0.0
4	0x3d6f26d0	0.058386624
5	0x3cc5ab71	0.024129601
6	0x3c80c1c6	0.015717398
7	0x3dc9bec9	0.098508425
8	0x3cb248a1	0.021763148
9	0x3cb3dc85	0.021955738
10	0xbd5536af	-0.052054103
11	0x3b8e0fde	0.0043353876
12	0x3d1739ed	0.036920477
13	0x00000000	0.0
14	0xbd23ec6e	-0.0400204
15	0x3c63d578	0.013905875
16	0x00000000	0.0
17	0xbd93e449	-0.07221276
18	0x3d35bc9b	0.04436932
19	0x3c013a9d	0.00788751
20	0x00000000	0.0
21	0xbc9cfff3	-0.019165015
22	0x00000000	0.0
23	0xbb8a9c1f	-0.004230037
24	0xbe21206c	-0.15735024
25	0x3c262f3f	0.0101431
26	0xbe059a78	-0.13047206
27	0x3da6a58d	0.08137045
28	0xbd64f393	-0.055896353
29	0x3e37bad8	0.17942369

e2_W f4 [30, 30]
0	0x3d300660	0.04297483
1	0xbd54bd14	-0.05193813
2	0x3e0efb63	0.13963084
3	0x3c26ca1c	0.010180023
4	0xbe24b34b	-0.1608402
5	0x3df8c6ff	0.121473305
6	0x3eb3b49c	0.35098732
7	0x3e81ef2c	0.25377786
8	0xbe787657	-0.24263893
9	0xbe049aee	-0.12949726
10	0xbe424bfe	-0.18974301
11	0x3b95b535	0.0045687207
12	0xbf160f5c	-0.58617187
13	0xbd1582d2	-0.036501713
14	0xbea563f3	-0.32302818
15	0xbe53dd3d	-0.20689864
16	0xbe17b378	-0.14814556
17	0xbda77a14	-0.081775814
18	0x3d84859f	0.06470799
19	0x3e9c8a40	0.30574226
20	0xbd07efa0	-0.03318751
21	0x3ecbf38d	0.39834252
22	0xbe43f0e1	-0.19134857
23	0x3e34421b	0.17603342
24	0x3e8cb7d2	0.27483994
25	0x3e0a0271	0.13477494
26	0xbe428ef8	-0.18999851
27	0xbe897244	-0.2684499
28	0xbdf20a9c	-0.1181843
29	0x3d22dedc	0.039763317
30	0xbe656b2a	-0.22404161
31	0xbd75d3f9	-0.060016606
32	0xbd917281	-0.07101918
33	0x3dfb4d8f	0.122706525
34	0x3d839ca3	0.064263605
35	0x3de866ae	0.113477096
36	0xbe23c0fe	-0.1599159
37	0xbcc23933	-0.023708915
38	0x3e4f479b	0.20242159
39	0x3f10d046	0.565678
40	0xbeb5e6d1	-0.3552766
41	0x3eaf7903	0.34272012
42	0x3f1a7262	0.60330784
43	0x3e52f0c7	0.20599662
44	0x3d8adc03	0.06780245
45	0xbda5ffea	-0.08105452
46	0x3ebc73cb	0.36807093
47	0x3f030c70	0.51190853
48	0x3ed88874	0.42291605
49	0x3ec07a41	0.37593272
50	0x3dbcfacb	0.092275225
51	0xbe8ce39b	-0.275174
52	0xbc9d8ffa	-0.019233692
53	0x3e76bdde	0.24095866
54	0xbeb7e6b4	-0.359182
55	0x3e7c207c	0.24621767
56	0x3de34ee6	0.11099033
57	0x3e280fda	0.16412297
58	0xbe9c89af	-0.30573794
59	0xbe4c711b	-0.19965021
60	0xbc5a85e4	-0.013337586
61	0xbea57094	-0.32312453
62	0x3ed5cf97	0.4175994
63	0xbe08f3eb	-0.13374297
64	0x3d8300c5	0.06396631
65	0xbda0ed18	-0.07857722
66	0x3ecc5402	0.39907843
67	0x3ec4a5e6	0.3840782
68	0x3de54688	0.111950934
69	0xbeeb4f75	-0.45959058
70	0xbce4bf05	-0.027923116
71	0x3e465956	0.19370016
72	0x3e586391	0.21131732
73	0xbe0a44f5	-0.13502868
74	0x3ed7b01a	0.42126542
75	0xbeb37331	-0.35048822
76	0xbe394459	-0.18092479
77	0x3e7682de	0.2407336
78	0xbc4d5e36	-0.012534669
79	0x3f0e0cf7	0.5548853
80	0x3d475fe8	0.048675448
81	0xbddab35c	-0.10678741
82	0xbde6ff05	-0.1127911
83	0xbe525860	-0.20541525
84	0xbe2a0011	-0.16601588
85	0x3e52a464	0.20570523
86	0x3d1f928d	0.03895812
87	0x3eca1f75	0.39477125
88	0xbe4783b6	-0.19483837
89	0x3ee0d411	0.43911794
90	0xbd97f7d7	-0.074203186
91	0x3ed02224	0.40651047
92	0xbde4da79	-0.11174483
93	0xbe427566	-0.18990096
94	0x3d841597	0.064494304
95	0x3e885b1a	0.26632005
96	0x3d2a47eb	0.041572493
97	0xbe1acfb0	-0.15118289
98	0xbeb14e6c	-0.34630144
99	0xbeb94727	-0.36187097
100	0x3e04e83c	0.12979215
101	0x3e82d682	0.2555428
102	0xbd2dc14f	-0.04242068
103	0xbe8e0759	-0.2773998
104	0x3e66d41c	0.22541851
105	0xbea943eb	-0.3305963
106	0xbe3c8838	-0.18411338
107	0x3e2431c6	0.16034612
108	0xbf14bb5d	-0.58098394
109	0x3dcc4f14	0.099760205
110	0xbe19c887	-0.15017901
111	0x3ce72506	0.028215896
112	0xbca01f0a	-0.01954605
113	0x3d55c0b0	0.052185714
114	0x3e37893b	0.17923443
115	0xbe48827a	-0.19581023
116	0x3ebbd9ca	0.36689597
117	0x3e3ff9de	0.1874766
118	0x3e5f144a	0.21785083
119	0x3e99fe14	0.3007666
120	0x3ec2ff0d	0.38085213
121	0x3ed7ad40	0.42124367
122	0xbcd02ec7	-0.02541293
123	0xbec58720	-0.38579655
124	0xbd0ed244	-0.034868494
125	0xbe859b8e	-0.2609524
126	0xbea06436	-0.31326455
127	0x3d3b478f	0.04572254
128	0xbe16526f	-0.14679883
129	0xbeae4733	-0.34038696
130	0xbe9e8a19	-0.30964735
131	0xbdfe9b40	-0.12431955
132	0x3dbda9a1	0.0926087
133	0x3eb3dbc8	0.35128617
134	0xbc72a781	-0.014810444
135	0x3e89ba9d	0.26900187
136	0x3eb47e1d	0.35252467
137	0x3e81feca	0.253897
138	0xbf25bbc3	-0.64739627
139	0x3ea43608	0.32072473
140	0x3db3968f	0.08768951
141	0x3eedd3b7	0.46450588
142	0x3d9e7bb2	0.07738437
143	0x3d3b8550	0.045781434
144	0x3da7ffed	0.08203111
145	0x3e1271c3	0.14301209
146	0xbefb645e	-0.49100012
147	0xbc2aadc0	-0.010417402
148	0xbe5480d3	-0.20752268
149	0x3e5c833a	0.21534434
150	0x3d82f018	0.063934505
151	0x3d6a34f3	0.057179403
152	0xbe869b19	-0.26290205
153	0xbe11c2fd	-0.14234538
154	0xbcc94e6b	-0.024573525
155	0xbed3b7c3	-0.41351137
156	0x3d8ec76c	0.069716305
157	0x3b9143b7	0.004433121
158	0xbeba60ba	-0.36401922
159	0xbf12a08b	-0.5727622
160	0x3db9dd2a	0.09075387
161	0xbcd892bf	-0.026437161
162	0xbe34909d	-0.1763329
163	0xbd869057	-0.065704994
164	0x3edd95eb	0.4327844
165	0xbcf3a4cd	-0.02974167
166	0x3c51fae3	0.012816164
167	0xbea60429	-0.3242505
168	0x3ecce9b6	0.40022057
169	0x3e9c9b08	0.3058703
170	0x3e8d0be6	0.2754814
171	0x3e08e495	0.13368447
172	0x3e5d28ec	0.21597642
173	0x3df5ef44	0.12008527
174	0x3eb52e5f	0.3538694
175	0x3cde0e8b	0.027106544
176	0xbebdcd9a	-0.37070924
177	0x3e9293a5	0.2862827
178	0xbeffcc27	-0.49960443
179	0xbdfc7e6d	-0.12328801
180	0xbc7ea1a3	-0.015541467
181	0x3e1ab763	0.15109019
182	0x3e4c39f2	0.1994398
183	0xbd53dd7f	-0.051724907
184	0xbe098048	-0.13427842
185	0x3dd91173	0.10599031
186	0xbcd67f56	-0.026183765
187	0x3e697e98	0.22802198
188	0x3cf45f16	0.029830497
189	0x3d573c2c	0.05254762
190	0xbf11449a	-0.567453
191	0xbe920fcf	-0.28527686
192	0x3e69840b	0.22804277
193	0x3dc96cc4	0.098351985
194	0xbe4d1d1b	-0.20030634
195	0x3ed1de1f	0.40989777
196	0xbeb2b729	-0.34905365
197	0xbdc0289a	-0.09382744
198	0xbdf88b30	-0.12135923
199	0x3d5e1bbd	0.054225672
200	0xbe2f6f92	-0.17132404
201	0xbdfcdb2a	-0.1234649
202	0xbeda3eb1	-0.42625955
203	0x3e524de6	0.20537528
204	0x3d63ee47	0.05564716
205	0x3df775aa	0.120829895
206	0xbb0eb144	-0.002177314
207	0xbe967330	-0.29384756
208	0xbdf97d9f	-0.121821634
209	0xbdf0d9ec	-0.11760315
210	0x3d71e0e0	0.059052348
211	0x3f23e72b	0.6402461
212	0xbe7d382a	-0.24728456
213	0x3e08776f	0.1332681
214	0xbd4ec379	-0.050479386
215	0x3dc4c9d7	0.096088104
216	0xbd247e45	-0.040159483
217	0xbddef7d1	-0.10887111
218	0xbe6564e4	-0.22401768
219	0x3f109c15	0.5648816
220	0xbd453e6d	-0.048155237
221	0xbee096c3	-0.43865022
222	0xbe2b7cb8	-0.16746795
223	0x3e40b5ea	0.18819395
224	0xbe13cc04	-0.14433295
225	0x3eb3d919	0.3512657
226	0x3e7fd026	0.24981746
227	0xbd082fb3	-0.033248615
228	0xbe13cba5	-0.14433153
229	0xbe59a960	-0.21256018
230	0xbe391170	-0.18073058
231	0xbed1b062	-0.40954882
232	0x3e974315	0.29543367
233	0x3ec32934	0.38117373
234	0xbd6b1483	-0.05739261
235	0xbeedcfc2	-0.4644757
236	0xbee9cb1e	-0.4566278
237	0xbe987729	-0.29778412
238	0xbf4d5354	-0.80205274
239	0xbe91fa33	-0.285112
240	0x3e8c0793	0.2734953
241	0xbe019f91	-0.12658526
242	0x3e9fa96f	0.31183955
243	0xbe014803	-0.12625127
244	0x3edb0377	0.4277608
245	0x3e4db894	0.20089942
246	0x3b511fa7	0.0031909735
247	0x3eedaf0d	0.46422616
248	0xbe169fac	-0.14709347
249	0xbea347ca	-0.31890708
250	0xbc9eb083	-0.019371277
251	0x3dfdf0d1	0.12399448
252	0x3e9be25a	0.3044613
253	0x3e8b249f	0.27176377
254	0x3e4b933d	0.19880386
255	0x3e4f92a9	0.2027079

e2_b f4 [30]
0	0x3beea2e9	0.007282604
1	0x3d7f0317	0.062258806
2	0xbbb88de3	-0.0056321486
3	0xbc877ed7	-0.016539974
4	0xbcbcb09d	-0.023033435
5	0xbcf56008	-0.029953018
6	0xbc73f14e	-0.0148890745
7	0x3c50a535	0.012734701
8	0xbd79c1bc	-0.060975775
9	0x3d5ca821	0.053871278
10	0xbd01e2c9	-0.03171042
11	0x3b1a36d9	0.0023531227
12	0x3c863092	0.016380582
13	0x3d1010ce	0.035172276
14	0xbc104cee	-0.008807404
15	0xbc8c0430	-0.01709184
16	0xbbdd7c1c	-0.0067591798
17	0x3bbf72d2	0.005842545
18	0xbd3b7ec2	-0.045775183
19	0x3b725772	0.003697839
20	0x00000000	0.0
21	0x3d671d28	0.05642429
22	0xbc9bca5c	-0.01901739
23	0xbba89df2	-0.0051457817
24	0x3bc3e228	0.0059778877
25	0x3c5c9b17	0.013464711
26	0xbbdb626a	-0.0066950815
27	0xbc82a78b	-0.015949031
28	0x00000000	0.0
29	0xbc258449	-0.01010234

e3_W f4 [30, 13]
0	0x3e23a388	0.15980351
1	0xbd0d27e8	-0.034461886
2	0x3dc4ef84	0.096159965
3	0x3d896875	0.06709377
4	0xbe0da0f0	-0.13830924
5	0x3cdee720	0.027209818
6	0x3eac62cf	0.33669135
7	0x3e918d1f	0.2842798
8	0xbd81477d	-0.063124634
9	0xbeab63d4	-0.334746
10	0xbe310f36	-0.17290959
11	0x3c2ed293	0.010670322
12	0xbf02f91c	-0.5116136
13	0xbd70a9aa	-0.058755554
14	0xbe993352	-0.29921967
15	0xbe87df4d	-0.26537552
16	0xbe82aba1	-0.25521567
17	0xbda741bc	-0.08166835
18	0xbce4d5f7	-0.027934058
19	0x3e89d169	0.2691758
20	0x3c0090c5	0.007847016
21	0x3f0cc74f	0.5499162
22	0xbe36018a	-0.17774025
23	0x3db48d9e	0.08816074
24	0x3e6edfa4	0.233275
25	0x3c1bb970	0.009504661
26	0xbe3289b9	-0.1743535
27	0xbe6ddb63	-0.2322822
28	0xbdb727c3	-0.08943131
29	0x3de461e0	0.11151481
30	0xbe857826	-0.26068228
31	0xbd87123a	-0.06595273
32	0xbd2864c4	-0.041111723
33	0x3e08f0c3	0.13373093
34	0x3d7a4e59	0.061109874
35	0x3da76701	0.08173943
36	0xbe39b587	-0.18135653
37	0xbd0913bf	-0.033466097
38	0x3e4252b4	0.18976861
39	0x3ecad70b	0.3961719
40	0xbea6646d	-0.32498494
41	0x3ec8232f	0.39089343
42	0x3eb70080	0.3574257
43	0x3e4e934a	0.20173374
44	0x3d96bf89	0.07360751
45	0xbda5ffea	-0.08105452
46	0x3ec0bf47	0.37645933
47	0x3efd9e8c	0.49535024
48	0x3eee2c17	0.46518013
49	0x3eb4e6fd	0.3533248
50	0x3dbcfacb	0.092275225
51	0xbe979022	-0.29602152
52	0xbc3dd6b8	-0.0115868375
53	0x3e190282	0.14942363
54	0xbeaa518f	-0.3326535
55	0x3dc0b1d0	0.09408915
56	0x3de34ee6	0.11099033
57	0x3e3807da	0.17971745
58	0xbe9c89af	-0.30573794
59	0xbe23af5e	-0.15984866
60	0xbe05778b	-0.13033883
61	0xbe9aa531	-0.30204156
62	0x3ee5f0cf	0.44910285
63	0xbe031ddd	-0.1280436
64	0x3dc35fdc	0.09539768
65	0xbd10f385	-0.03538849
66	0x3ec4cdac	0.38438165
67	0x3ebb8dea	0.3663171
68	0x3e3f65ad	0.1869113
69	0xbf11a64d	-0.5689438
70	0x3d588dd3	0.05286963
71	0x3e34c37f	0.17652701
72	0x3e6f36fa	0.23360816
73	0xbe4c6f48	-0.19964325
74	0x3eebcfcc	0.46056974
75	0xbeb06927	-0.34455225
76	0xbe2ee7b7	-0.1708058
77	0x3e655c6f	0.22398542
78	0x3d6259fa	0.05526159
79	0x3f065596	0.52474344
80	0x3c0e0877	0.00866901
81	0xbd2caa5e	-0.042154662
82	0xbdc7a6fe	-0.09748648
83	0xbeabe008	-0.3356936
84	0xbea8e813	-0.3298956
85	0x3e4e90ee	0.20172474
86	0x3ddc98a5	0.10771302
87	0x3ea5fb8c	0.32418478
88	0xbe5ba877	-0.21450983
89	0x3edf4bdd	0.43612567
90	0xbda3b25d	-0.079930045
91	0x3edbe83f	0.42950627
92	0xbdc92f92	-0.098235264
93	0xbe8094bc	-0.25113475
94	0x3dd9236d	0.1060246
95	0x3e885b1a	0.26632005
96	0x3d407bdd	0.046993125
97	0xbe1acfb0	-0.15118289
98	0xbea41601	-0.32048038
99	0xbec1a977	-0.37824604
100	0x3df4f596	0.11960904
101	0x3e76cf28	0.24102461
102	0xbd2dc14f	-0.04242068
103	0xbe88aa35	-0.26692358
104	0x3e31497a	0.17313185
105	0xbe38e525	-0.18056162
106	0xbe3c8838	-0.18411338
107	0x3e1c1001	0.1524048
108	0xbf14bb5d	-0.58098394
109	0x3d8ef970	0.0698117
110	0xbe19c887	-0.15017901
111	0x3daa7bd1	0.08324397
112	0xbdb88f2e	-0.09011684
113	0x3d55c0b0	0.052185714
114	0x3e30de81	0.17272379
115	0xbe48827a	-0.19581023
116	0x3eb07dbb	0.34470925
117	0x3e6d3c2c	0.23167485
118	0x3ec6dc2d	0.38839856
119	0x3e492038	0.19641197
120	0x3e2094c9	0.15681757
121	0x3e5f2bb6	0.21794018
122	0x3d3bc9e7	0.045846846
123	0xbebc9dcd	-0.36839142
124	0x3b936072	0.004497581
125	0xbad792c3	-0.0016446937
126	0xbebc1558	-0.36735034
127	0x3d38444a	0.044987
128	0xbe16526f	-0.14679883
129	0x3b8cd6c2	0.004298062
130	0xbe7cfbc3	-0.24705414
131	0x3d378a34	0.044809535
132	0x3dd85512	0.10563101
133	0x3eabf9bb	0.33588967
134	0xbb6b7460	-0.003592752
135	0x3e9170d1	0.28406385
136	0x3eb9605a	0.36206323
137	0x3e90d8c0	0.28290367
138	0xbf1f03eb	-0.62115353
139	0x3e9d7359	0.30752066
140	0x3d9f5b30	0.077810645
141	0x3de0162c	0.10941729
142	0x3d924cb3	0.071435355
143	0x3cd2a1b8	0.02571188
144	0x3d263ef5	0.040587384
145	0xbde74c27	-0.11293822
146	0xbe56d93f	-0.2098131
147	0xbce65f66	-0.028121661
148	0xbe544ba5	-0.20731981
149	0x3e8ecb96	0.278897
150	0x3db8fe4a	0.09032877
151	0x3ddadd00	0.10686684
152	0xbe60a1d3	-0.21936731
153	0xbe1271cc	-0.14301223
154	0xbb432798	-0.0029778238
155	0xbe41f252	-0.18940094
156	0xbd8e0994	-0.06935421
157	0xbb5fe37b	-0.0034162689
158	0xbe9cbfe5	-0.30615154
159	0xbf311fee	-0.69189346
160	0x3e07a615	0.13246949
161	0x3d12f00e	0.035873465
162	0xbe0c21c6	-0.13684759
163	0x3e7a04d6	0.24415907
164	0x3e0a25ba	0.13490954
165	0xbc52acb0	-0.012858555
166	0x3c81e118	0.015854403
167	0xbec4967b	-0.38396057
168	0x3ed81128	0.4220059
169	0x3e833b5b	0.25631222
170	0x3e8feb58	0.2810924
171	0x3dcabaf6	0.09898941
172	0x3e6d7b67	0.23191606
173	0x3dc4274a	0.09577806
174	0x3e3d2f30	0.18475032
175	0xbd20f4e6	-0.039296053
176	0xbebb46da	-0.36577493
177	0x3e87d611	0.26530507
178	0xbf027007	-0.5095219
179	0xbd9a9aa5	-0.07549027
180	0xbd584ca8	-0.05280748
181	0xbe86ef76	-0.2635457
182	0x3e1e6c2e	0.15470955
183	0xbd9dafcc	-0.07699546
184	0xbde7031e	-0.112798914
185	0x3d7feb5d	0.06248032
186	0xbdfc02c8	-0.12305218
187	0x3ea5abd5	0.3235766
188	0x3db9d8ad	0.09074531
189	0x3d10ad86	0.035321735
190	0xbeee8f23	-0.4659358
191	0xbeb1b637	-0.3470933
192	0x3e8fad3a	0.2806185
193	0xbc561269	-0.013065913
194	0xbda2b54d	-0.07944737
195	0x3ed3045c	0.41214263
196	0xbea411fa	-0.32044965
197	0xbe1ad86b	-0.1512162
198	0xbe080216	-0.13282046
199	0x3e1b0669	0.15139164
200	0xbe3a7319	-0.18207969
201	0xbe222f5d	-0.1583838
202	0xbed0fd3f	-0.4081821
203	0x3e40d63a	0.18831721
204	0x3e5523c7	0.20814429
205	0xbdfbe765	-0.122999944
206	0x3d2cbed9	0.042174194
207	0xbeaae290	-0.33375978
208	0xbdb265ed	-0.08710847
209	0x3ec017d4	0.3751818
210	0x3d0f8be5	0.035045523
211	0x3f1627af	0.586543
212	0xbe50215e	-0.20325229
213	0x3e49c44f	0.19703792
214	0xbd4ec379	-0.050479386
215	0x3e0c56b3	0.13704948
216	0xbcc7a412	-0.024370227
217	0xbe1460db	-0.14490072
218	0xbe7d2b23	-0.24723487
219	0x3f4aa965	0.79164726
220	0xbd02adf6	-0.031904183
221	0xbf0010cd	-0.50025636
222	0xbe39bb63	-0.18137889
223	0x3e334551	0.17506911
224	0xbe225995	-0.15854485
225	0x3eb3d919	0.3512657
226	0x3e8d8905	0.276436
227	0xbd211c57	-0.039333668
228	0xbdd0e8b2	-0.10200633
229	0xbe83a751	-0.2571359
230	0xbe431cf5	-0.19054015
231	0xbec45905	-0.38349167
232	0x3e9f37f5	0.3109738
233	0x3ec3604b	0.38159403
234	0xbea86cd5	-0.32895532
235	0xbe615b08	-0.22007382
236	0xbee18bca	-0.44051963
237	0xbe4b7c07	-0.19871531
238	0xbf4d5354	-0.80205274
239	0xbe9c5d28	-0.30539823
240	0x3eab730c	0.3348621
241	0xbd9657d9	-0.07340974
242	0x3e4ef053	0.20208864
243	0xbe085eaf	-0.13317369
244	0x3ee28ee1	0.44249633
245	0x3d52b082	0.051437862
246	0xbdbfd123	-0.093660615
247	0x3f2fcaf2	0.68669045
248	0xbd9c2d1d	-0.07625792
249	0xbeb14bc5	-0.3462812
250	0x3dab4b69	0.08363993
251	0xbc2448f9	-0.010027164
252	0x3e8f4d59	0.279887
253	0xbe73ad0f	-0.23796485
254	0x3e70b6ca	0.23507228
255	0x3e4be05a	0.19909802

e3_b f4 [13]
0	0x3c5e7734	0.013578225
1	0xbd00f943	-0.031487714
2	0xbd586485	-0.052830238
3	0x3ca5fdf3	0.020262694
4	0x00000000	0.0
5	0xbc6f4c5e	-0.01460561
6	0x00000000	0.0
7	0xbc94cb9b	-0.018163493
8	0x3b7956d9	0.003804615
9	0xbc2406b2	-0.010011362
10	0xbc6d2e03	-0.014476302
11	0x00000000	0.0
12	0xbca98237	-0.020691974

d1_W f4 [13, 30]
0	0x3e1da9f0	0.15396857
1	0xbd794df8	-0.060865372
2	0x3e8f6f78	0.2801473
3	0x3e03aae1	0.12858154
4	0xbe57263e	-0.21010682
5	0x3e656431	0.22401501
6	0x3f0ac41e	0.542055
7	0x3eb1d31c	0.34731376
8	0xbe8d5380	-0.27602768
9	0xbf21cf94	-0.63207364
10	0xbe645747	-0.22298919
11	0x3dc0196b	0.09379848
12	0xbf6975b1	-0.9119521
13	0xbdf79171	-0.120882876
14	0xbefa351d	-0.48868647
15	0xbea5e62a	-0.32402164
16	0xbe4ea7c0	-0.20181179
17	0xbe3a155f	-0.18172215
18	0x3e3155fb	0.17317955
19	0x3ecab6b7	0.39592525
20	0x3df94172	0.12170686
21	0x3f110b0d	0.5665749
22	0xbe640b59	-0.22269954
23	0x3e1e15b3	0.15437965
24	0x3eb6a9df	0.35676476
25	0x3cb4d54f	0.02207437
26	0xbe954fcb	-0.2916244
27	0xbe837eaa	-0.25682575
28	0xbe37d7fb	-0.17953484
29	0x3db17f07	0.08666807
30	0xbe49438e	-0.19654676
31	0xbde2462f	-0.11048543
32	0xbdd52916	-0.10408227
33	0x3ec52976	0.38508195
34	0x3dac6f13	0.08419623
35	0x3e013857	0.12619148
36	0xbe8186ee	-0.25298256
37	0xbe1f54ca	-0.15559688
38	0x3e9d70b4	0.30750048
39	0x3f1d06f3	0.6133873
40	0xbef64ccb	-0.48105463
41	0x3f628620	0.8848591
42	0x3f07242d	0.52789575
43	0x3ecfd0d3	0.40589008
44	0x3dd46f5d	0.10372803
45	0xbe0d986f	-0.1382768
46	0x3f2078e5	0.6268447
47	0x3ef5d0af	0.48010775
48	0x3f3af688	0.73032427
49	0x3f0d6876	0.5523752
50	0x3e70271b	0.23452418
51	0xbe90fea3	-0.28319272
52	0x3c564f0f	0.0130803725
53	0x3e928dcf	0.28623816
54	0xbee2e3ed	-0.4431452
55	0x3e0f850c	0.14015597
56	0x3e2ca729	0.16860642
57	0x3e9b121f	0.30287263
58	0xbeedcc4c	-0.4644493
59	0xbe86b41c	-0.26309288
60	0x3cfd466c	0.030917369
61	0xbef6c105	-0.48194137
62	0x3eb85141	0.35999492
63	0x3dc78c19	0.097435184
64	0x3e042119	0.12903251
65	0xbe27148d	-0.16316433
66	0x3e123b12	0.14280346
67	0x3ef74ed3	0.48302326
68	0x3e7e622a	0.24842134
69	0xbee646f8	-0.4497602
70	0x3ca72d82	0.020407442
71	0x3f7bf7b1	0.9842482
72	0x3ec99e56	0.39378613
73	0xbf184159	-0.5947471
74	0x3f36f369	0.71465164
75	0xbf04961f	-0.51791567
76	0xbeb9c3b1	-0.36282113
77	0x3f397b86	0.72454107
78	0x3e03b594	0.12862235
79	0x3f0b0157	0.5429892
80	0x3e7571e1	0.23969223
81	0x3e85bf4f	0.2612252
82	0x3ed61d48	0.41819215
83	0xbe26a0f4	-0.16272336
84	0xbf068db7	-0.5255999
85	0x3e717afa	0.23582068
86	0x3e696c3f	0.22795199
87	0x3dfe4355	0.12415186
88	0xbe978aca	-0.29598075
89	0x3f1b7872	0.6073066
90	0xbdaa3260	-0.083103895
91	0x3f148cbb	0.5802724
92	0xbe157afa	-0.14597693
93	0xbe6a655b	-0.22890227
94	0x3dc8a688	0.09797388
95	0x3edf0533	0.43558654
96	0x3da9716e	0.08273588
97	0xbe845ded	-0.2585291
98	0xbf06ac80	-0.52606964
99	0xbed6d83c	-0.4196185
100	0x3e5f8840	0.21829319
101	0x3f03c004	0.5146487
102	0xbd83f9fb	-0.06444164
103	0xbedf822c	-0.43654
104	0x3eaf53ae	0.3424353
105	0xbf07c921	-0.53041273
106	0xbe8ee738	-0.2791078
107	0x3dd3aa77	0.10335248
108	0xbf544601	-0.8291932
109	0x3e0e8eb9	0.13921632
110	0xbda6451a	-0.08118649
111	0x3d714ee8	0.05891314
112	0x3d93f8e3	0.07225206
113	0x3d66e727	0.056372788
114	0x3e99adb6	0.30015343
115	0xbe9f0b7b	-0.31063446
116	0x3f0eaed1	0.557355
117	0x3ecb7808	0.39740014
118	0x3ea970dc	0.33093917
119	0x3ee3a1cd	0.44459382
120	0x3e9e2a70	0.30891752
121	0x3ea982a6	0.3310749
122	0x3cf2e517	0.029650254
123	0xbf0f43b3	-0.55962676
124	0xbd58f612	-0.052969046
125	0xbe9a8943	-0.30182847
126	0xbf0edc0d	-0.5580452
127	0x3dcf9cec	0.10137352
128	0xbe645b04	-0.22300345
129	0xbececeef	-0.40392253
130	0xbed17562	-0.40909868
131	0x3dd79e01	0.10528184
132	0x3e100f21	0.14068271
133	0x3f04ca36	0.5187105
134	0xbbb2d732	-0.005457782
135	0x3ed139ae	0.4086432
136	0x3f0ccdb0	0.55001354
137	0x3ee6fac9	0.4511321
138	0xbf6d80ed	-0.9277485
139	0x3ef6bf73	0.4819294
140	0x3e08682f	0.13320993
141	0x3e2a34bd	0.1662168
142	0x3e151a19	0.14560737
143	0x3e19bb9a	0.1501297
144	0x3e004a99	0.12528457
145	0xbe1027f2	-0.14077738
146	0xbf3ef22c	-0.74588275
147	0xbd2efb08	-0.04271987
148	0xbea16864	-0.31524956
149	0x3ed8ebec	0.42367494
150	0xbe169e16	-0.14708742
151	0xbd18c572	-0.037297674
152	0xbe9f4292	-0.31105477
153	0xbe0b2528	-0.13588393
154	0xbb943b09	-0.004523639
155	0xbf0565c3	-0.521084
156	0x3e18aae7	0.14908944
157	0xbd8686a5	-0.0656865
158	0xbeee1ea6	-0.46507758
159	0xbf255cd0	-0.64594746
160	0x3e6468d1	0.2230561
161	0xbd8ad1e6	-0.06778316
162	0xbe54e02c	-0.2078864
163	0xbdd0b247	-0.10190254
164	0x3f36651f	0.7124805
165	0xbd05242e	-0.032505207
166	0x3d32bd1f	0.04363739
167	0xbf2ee1ef	-0.683135
168	0x3f2b7baa	0.6698557
169	0x3ebf803a	0.37402517
170	0x3edec6e2	0.4351111
171	0xbc48d26e	-0.012257202
172	0x3eb889f9	0.36042765
173	0x3e3bc282	0.18335918
174	0x3e852c8a	0.26010543
175	0xbd983cce	-0.074334726
176	0xbf13fec8	-0.5781064
177	0x3ee5a0fd	0.44849387
178	0xbf424ac9	-0.75895363
179	0xbde179cd	-0.1100956
180	0xbda44a8d	-0.08022032
181	0xbed16e23	-0.4090434
182	0x3e764224	0.24048668
183	0xbda0ec56	-0.078575775
184	0xbe2f7763	-0.17135386
185	0x3e50cad2	0.2038987
186	0xbe3f6a7e	-0.18692967
187	0x3f0b7832	0.5448028
188	0x3e0d2915	0.13785203
189	0xbe3e838d	-0.1860487
190	0xbf4339fb	-0.76260346
191	0xbf03503c	-0.512943
192	0x3eda42b2	0.4262901
193	0xbca2996b	-0.019848546
194	0xbde36e98	-0.111050785
195	0x3f250055	0.6445363
196	0xbf00caed	-0.5030964
197	0xbe6b3a1e	-0.22971389
198	0xbe3dd019	-0.18536414
199	0x3e6b7ffc	0.22998041
200	0xbe8540ca	-0.26025993
201	0xbe766071	-0.24060227
202	0xbf212ce7	-0.6295914
203	0x3e927857	0.28607437
204	0x3ea1e42a	0.31619388
205	0xbe3f55b2	-0.18685034
206	0x3d8335aa	0.0640672
207	0xbf01cbe7	-0.50701755
208	0xbe3d8076	-0.18506035
209	0x3f0a5cb1	0.54047686
210	0x3e909b4c	0.28243482
211	0x3f362f1a	0.7116562
212	0xbe9cc8f6	-0.3062207
213	0x3ec3842e	0.38186783
214	0xbd9d0c57	-0.07668369
215	0x3e6d4c95	0.23173745
216	0x3df8f3b7	0.1215586
217	0xbe386af4	-0.1800955
218	0xbeae3cc2	-0.3403073
219	0x3f9ab857	1.2087506
220	0xbc9b6fd2	-0.018974219
221	0xbf14e67f	-0.5816421
222	0xbe8240fe	-0.2544021
223	0x3e8820e1	0.26587585
224	0xbe48d389	-0.19611944
225	0x3f002675	0.5005868
226	0x3ebf9cf0	0.3742442
227	0xbda69031	-0.08132971
228	0xbe74588d	-0.23861904
229	0xbec7cf5c	-0.3902539
230	0x3d817fa1	0.063231714
231	0xbefbbe57	-0.49168655
232	0x3f203dad	0.6259411
233	0x3f4d5a0d	0.8021553
234	0xbefc9e26	-0.49339408
235	0xbef3000f	-0.47460982
236	0xbf319430	-0.6936674
237	0x3e30f47c	0.17280763
238	0xbf9bf4b6	-1.2184055
239	0xbe827944	-0.25483143
240	0xbdb166f8	-0.08662218
241	0xbe99497c	-0.29938877
242	0x3e99435f	0.29934213
243	0x3e9d7a8a	0.30757552
244	0x3f30ca8b	0.69059056
245	0xbe82d223	-0.25550947
246	0xbe64e0ff	-0.22351454
247	0x3f744913	0.95424
248	0xbe0252a1	-0.12726833
249	0xbeccc7f0	-0.3999629
250	0x3dd7dffe	0.1054077
251	0x3dd349ea	0.10316832
252	0x3ed62475	0.4182469
253	0xbea62188	-0.32447457
254	0x3ea19b09	0.31563595
255	0x3e9ba4b3	0.30399093

d1_b f4 [30]
0	0x3c8306de	0.015994485
1	0xbbe48428	-0.006973762
2	0x3b8a7b73	0.004226142
3	0x3d9a00ca	0.07519682
4	0x00000000	0.0
5	0x3ccbeb05	0.02489234
6	0x3cdeb515	0.027185956
7	0xbae24154	-0.0017261901
8	0x00000000	0.0
9	0xba8c5740	-0.0010707155
10	0x3cb26245	0.021775374
11	0x3ddff42d	0.10935245
12	0x00000000	0.0
13	0xbcb47c3d	-0.022031898
14	0x00000000	0.0
15	0xbd13d29b	-0.03608952
16	0xbb8a5f88	-0.004222814
17	0x3d536857	0.051613178
18	0xbb9538c1	-0.0045538847
19	0xbd1765eb	-0.03696243
20	0x3d3013c5	0.042987604
21	0xbbaaec43	-0.005216153
22	0xbd95b269	-0.0730942
23	0xbc7c99e2	-0.015417548
24	0x3b608e97	0.0034264678
25	0xbc7002e7	-0.0146491295
26	0x00000000	0.0
27	0xbd7b256c	-0.061314985
28	0x00000000	0.0
29	0x3b247029	0.0025091267

d2_W f4 [30, 30]
0	0xbc9fd02d	-0.019508446
1	0xbd869972	-0.06572236
2	0xbe6435a5	-0.22286089
3	0xbd431bc8	-0.047633916
4	0x3d2139fc	0.03936194
5	0x3edc5001	0.43029788
6	0x3ea9b0e3	0.33142766
7	0x3e341d4d	0.17589302
8	0xbd9bb855	-0.07603518
9	0xbea74936	-0.32673043
10	0x3d7bfb96	0.061519228
11	0xbeefab41	-0.46810344
12	0xbdea28eb	-0.11433586
13	0xbd7c98e3	-0.06166924
14	0x3e8e4a79	0.27791193
15	0xbf2b067c	-0.6680677
16	0xbe0fe654	-0.14052707
17	0xbd44ecea	-0.0480775
18	0x3d1670ff	0.036728855
19	0x3e029430	0.12751842
20	0xbd07efa0	-0.03318751
21	0x3eac13c4	0.3360883
22	0xbe49ea7a	-0.19718352
23	0x3f047b59	0.51750714
24	0x3eaa7d2b	0.3329862
25	0x3cc6d9ff	0.02427387
26	0xbd717731	-0.05895156
27	0xbd9cb4d1	-0.076516755
28	0xbdf20a9c	-0.1181843
29	0x3e80a843	0.25128374
30	0xbea02f4a	-0.3128608
31	0xbdaf6d72	-0.08565797
32	0x3c84192f	0.01612529
33	0x3dcd5aef	0.1002711
34	0x3d83d99f	0.06437992
35	0x3d95ff8a	0.07324131
36	0xbe44f751	-0.19234969
37	0xbb01d927	-0.001981327
38	0x3e514015	0.20434602
39	0x3ec97a53	0.39351138
40	0xbeab4f31	-0.33458856
41	0x3ed52230	0.41627645
42	0x3eb8b6fd	0.3607711
43	0x3e359d1b	0.17735712
44	0x3df987a4	0.121840745
45	0x3d083094	0.033249453
46	0x3eb88b04	0.3604356
47	0x3ef35655	0.47526804
48	0x3ee76f31	0.4520202
49	0x3eaf3c41	0.34225658
50	0x3dbcfacb	0.092275225
51	0xbea84e25	-0.3287212
52	0xbcbed780	-0.023296118
53	0x3e92605e	0.28589147
54	0xbea03ba6	-0.31295508
55	0x3dd0efe7	0.10202008
56	0x3daf7cab	0.085687004
57	0x3e3e388a	0.18576255
58	0xbe9c89af	-0.30573794
59	0xbdb321cc	-0.087466806
60	0xbe28bb43	-0.16477685
61	0xbeaad3f0	-0.3336482
62	0x3ef37f5d	0.47558108
63	0xbe1a8716	-0.15090594
64	0x3d9ed9a1	0.07756353
65	0xbd9a1092	-0.07522692
66	0x3ec2223d	0.37916747
67	0x3ebfe4cb	0.37479243
68	0x3e39162c	0.18074864
69	0xbf0f9e16	-0.56100595
70	0xbe1c05cc	-0.15236586
71	0x3e9f528d	0.3111767
72	0x3e8f417b	0.27979645
73	0xbe3f0df4	-0.18657666
74	0x3f0e6e90	0.55637455
75	0xbe9bb7dd	-0.30413714
76	0xbe3e4870	-0.1858232
77	0x3e4f3f2b	0.2023894
78	0xba0408dd	-0.0005036721
79	0x3f04ebea	0.51922476
80	0x3d475fe8	0.048675448
81	0xbe388c7d	-0.18022342
82	0xbe050de3	-0.12993579
83	0xbdb04688	-0.08607203
84	0xbe9afb4a	-0.30269843
85	0x3e26ad96	0.16277155
86	0x3df257ed	0.11833177
87	0x3e993bb8	0.29928374
88	0xbe4783b6	-0.19483837
89	0x3ef2ce4c	0.47423017
90	0xbe016b4f	-0.12638591
91	0x3ebfee16	0.37486333
92	0xbe75011c	-0.23926204
93	0xbe7d3cd3	-0.24730234
94	0x3e441c89	0.1915151
95	0x3ee14e0c	0.44004858
96	0x3b62bc49	0.003459709
97	0xbdd12c55	-0.10213534
98	0xbe8c85bd	-0.27445784
99	0xbeb94727	-0.36187097
100	0x3da6662a	0.08124955
101	0x3e5cd0c7	0.21564017
102	0xbd297956	-0.04137548
103	0xbefbaa00	-0.49153137
104	0x3e886705	0.26641098
105	0xbe7e933e	-0.24860856
106	0xbe4cfbdc	-0.20017952
107	0xbe0f5137	-0.13995825
108	0xbf2ae753	-0.6675922
109	0xba844142	-0.0010090249
110	0xbe19c887	-0.15017901
111	0x3c3c1be6	0.011481261
112	0xbd859121	-0.06521822
113	0x3e53636c	0.20643395
114	0x3eaf3ffb	0.342285
115	0xbe48827a	-0.19581023
116	0x3ee44c61	0.44589522
117	0x3e0b5237	0.13605581
118	0x3e5f144a	0.21785083
119	0x3ed8e670	0.4236331
120	0x3e503c23	0.2033544
121	0x3e5f2bb6	0.21794018
122	0x3c9fe49b	0.019518187
123	0xbebc9dcd	-0.36839142
124	0xbd0ed244	-0.034868494
125	0xbe4b74d2	-0.19868782
126	0xbebc1558	-0.36735034
127	0x3d88aae7	0.06673222
128	0xbe16526f	-0.14679883
129	0xbe88234e	-0.26589435
130	0xbe89e1ea	-0.2693017
131	0x3d8defc7	0.069304995
132	0x3dbda9a1	0.0926087
133	0x3eaed375	0.34145704
134	0xbb6b7460	-0.003592752
135	0x3e89ba9d	0.26900187
136	0x3eb9605a	0.36206323
137	0x3e980ca6	0.2969715
138	0xbf1c5812	-0.61071885
139	0x3ea26de8	0.31724477
140	0x3db3968f	0.08768951
141	0x3de0162c	0.10941729
142	0x3dc44d45	0.095850505
143	0x3dca660f	0.098827474
144	0x3da8e74a	0.0824724
145	0xbdbdca4d	-0.092671014
146	0xbefb645e	-0.49100012
147	0xbce65f66	-0.028121661
148	0xbe5480d3	-0.20752268
149	0x3e8ecb96	0.278897
150	0xbe01c464	-0.12672573
151	0xbc254f86	-0.010089761
152	0xbe8b6177	-0.27222797
153	0xbe489986	-0.19589815
154	0x3d92acea	0.07161887
155	0xbe805de7	-0.25071642
156	0x3d14991e	0.036278836
157	0xbd5e4daa	-0.054273285
158	0xbea5f80a	-0.324158
159	0xbf1e8546	-0.6192211
160	0x3dc88ce5	0.097924985
161	0xbdcb0bed	-0.09914384
162	0x3c991842	0.018688325
163	0xbdf643e3	-0.12024667
164	0x3ee2a3f0	0.442657
165	0xbd69d784	-0.057090297
166	0x3bd1f3b8	0.0064072274
167	0xbf1f71a1	-0.6228276
168	0x3eb7e187	0.3591425
169	0x3e9e4f28	0.30919766
170	0x3e8d0be6	0.2754814
171	0xbb91059a	-0.0044257166
172	0x3e2b8a9d	0.16752096
173	0x3ec490f5	0.38391843
174	0x3e86e957	0.263499
175	0xbd20f4e6	-0.039296053
176	0xbead6b9e	-0.33871168
177	0x3e481d7c	0.19542497
178	0xbeffcc27	-0.49960443
179	0xbd9560d3	-0.072938584
180	0xbdd6ff87	-0.10497957
181	0xbe9a10fa	-0.30091077
182	0x3e5cd75c	0.21566528
183	0xbda7394d	-0.08165226
184	0xbdebfb16	-0.115225
185	0x3df3c264	0.119023114
186	0xbe1d2c57	-0.15348946
187	0x3ec72aa6	0.38899726
188	0x3db08cd4	0.08620611
189	0xbdeaa746	-0.11457686
190	0xbf087eae	-0.533183
191	0xbe99800f	-0.29980513
192	0x3e9a60fb	0.30152115
193	0xbd1fa7b8	-0.03897831
194	0xbb2e28b4	-0.0026574554
195	0x3ef09a07	0.46992514
196	0xbeb1ac8b	-0.34701952
197	0xbe430e42	-0.19048408
198	0xbe0bda4c	-0.13657492
199	0x3e292260	0.1651702
200	0xbe2f6f92	-0.17132404
201	0xbe33524e	-0.17511865
202	0xbee9e472	-0.45682102
203	0x3eafc95c	0.34333313
204	0x3e6dc86b	0.23220985
205	0xbdfbe765	-0.122999944
206	0x3c1f7e56	0.009734711
207	0xbeb96457	-0.36209366
208	0xbdf97d9f	-0.121821634
209	0x3ece2677	0.4026372
210	0xbc8ba7a5	-0.017047713
211	0x3f109f0a	0.56492674
212	0xbe602459	-0.21888866
213	0x3e00d6cc	0.12581939
214	0xbd109383	-0.03529693
215	0x3e156d17	0.14592396
216	0xbd122347	-0.035678174
217	0xbe092779	-0.13393964
218	0xbe6065c0	-0.21913815
219	0x3f4aa965	0.79164726
220	0xbd9645f5	-0.07337562
221	0xbf0934a0	-0.53595924
222	0xbe27c25f	-0.1638274
223	0x3e17f89b	0.14840929
224	0xbd17eb82	-0.037089832
225	0x3e886068	0.26636052
226	0x3e791d0a	0.24327484
227	0xbdcf8751	-0.101332314
228	0xbe17b5a2	-0.14815381
229	0xbe6f294c	-0.23355597
230	0xbe391170	-0.18073058
231	0xbecb5075	-0.3970982
232	0x3e88c2da	0.2671116
233	0x3efef151	0.49793485
234	0xbe7d9e85	-0.24767502
235	0xbe9c3747	-0.30510923
236	0xbef03209	-0.46913174
237	0xbeac4e85	-0.33653656
238	0xbf4d5354	-0.80205274
239	0xbebac034	-0.36474764
240	0x3eab730c	0.3348621
241	0xbdb6c9e4	-0.08925226
242	0x3e61f2c8	0.2206527
243	0xbe014803	-0.12625127
244	0x3ee8c1a3	0.45460233
245	0x3d52b082	0.051437862
246	0xbdc9ffdf	-0.09863257
247	0x3f28b664	0.65903306
248	0xbdab93f1	-0.08377827
249	0xbea1716e	-0.31531852
250	0x3d558959	0.052132938
251	0xbc2448f9	-0.010027164
252	0x3e8cf73e	0.2753238
253	0xbe73ad0f	-0.23796485
254	0x3e54c380	0.20777702
255	0x3e617687	0.22017871

d2_b f4 [30]
0	0xbd559ed4	-0.052153423
1	0xbd019709	-0.03163818
2	0xbcd48e69	-0.025946813
3	0xbcd694c3	-0.026193982
4	0xbcf11578	-0.029429182
5	0xbb1c306d	-0.0023832575
6	0xbce48141	-0.027893664
7	0x3c816a96	0.015797894
8	0xbbeee98c	-0.0072910246
9	0x3c032b04	0.008005861
10	0xbd929e30	-0.07159078
11	0x3e106162	0.14099649
12	0x3cfce964	0.030873008
13	0xbcc6a1ac	-0.024247013
14	0x3d11ae59	0.03556666
15	0x3df0501e	0.11734031
16	0xbc818ecf	-0.015815167
17	0xbd179adf	-0.03701293
18	0xbc6650c5	-0.014057343
19	0x3c6cb562	0.014447542
20	0x00000000	0.0
21	0xbc8915d8	-0.016734049
22	0xbd28e1c9	-0.04123095
23	0x3e140fad	0.14459105
24	0x3d352943	0.044228803
25	0x00000000	0.0
26	0xbcc4360c	-0.023951553
27	0x3d792161	0.06082285
28	0x00000000	0.0
29	0xbb0fc502	-0.0021937494

out_W f4 [30, 11]
0	0x3e1e80c2	0.15478805
1	0xbe3f0932	-0.18655851
2	0xbeca2668	-0.39482427
3	0xbeb868b8	-0.36017394
4	0x3e79ea51	0.24405791
5	0x3e879972	0.26484257
6	0x3db54e16	0.08852784
7	0x3e5fc440	0.21852207
8	0x3d3236c6	0.043509267
9	0x3e90fafa	0.2831648
10	0x3e6dfc03	0.23240666
11	0xbeb2c5b7	-0.3491647
12	0x3e77e7ca	0.24209514
13	0xbea7a95b	-0.32746395
14	0x3e543217	0.20722233
15	0xbe5df36f	-0.21674894
16	0x3e7c77f2	0.2465513
17	0x3d7ff662	0.06249083
18	0xbe3c450f	-0.18385719
19	0xbd502f68	-0.05082646
20	0xbec706d4	-0.38872397
21	0xbe8311fe	-0.25599664
22	0x3db9e7d5	0.090774216
23	0x3dc51fc5	0.096252
24	0x3dcfa272	0.10138406
25	0xbcd1a089	-0.025589244
26	0x3ef6891d	0.48151484
27	0x3eb3b4fa	0.35099012
28	0x3e0c4c29	0.13700928
29	0x3e1e49c9	0.15457834
30	0x3e45c98b	0.19315164
31	0xbdaf0c8e	-0.085473165
32	0xbe82eebd	-0.25572768
33	0x3e07f94b	0.13278691
34	0xba612b69	-0.00085895375
35	0xbe29f506	-0.16597375
36	0xbd130f7b	-0.035903435
37	0x3e8511b0	0.25990057
38	0x3ea08b37	0.31356212
39	0xbe14421a	-0.1447834
40	0x3c98e28c	0.018662713
41	0xbe15b5cc	-0.14620131
42	0x3da925ae	0.0825914
43	0xbdde13ac	-0.10843596
44	0xbe09e809	-0.1346742
45	0x3e23358a	0.15938392
46	0xbeb17996	-0.34663075
47	0x3e313fa1	0.17309429
48	0xbe3629c7	-0.17789374
49	0x3ea3df44	0.32006276
50	0x3e341f4a	0.17590061
51	0xbe556eeb	-0.20843093
52	0x3eac8fe8	0.33703542
53	0xbea600f4	-0.32422602
54	0xbe04b0a7	-0.12958013
55	0xbe92bfc6	-0.28661937
56	0xbcaa3573	-0.02077744
57	0x3e5bb981	0.21457483
58	0xbe14b724	-0.14522988
59	0xbe884276	-0.26613206
60	0xbdfaf717	-0.1225416
61	0xbe6f4535	-0.23366244
62	0xbe84bcfc	-0.25925434
63	0x3df7dfab	0.12103208
64	0xbe2167e3	-0.15762286
65	0x3e061432	0.13093641
66	0xbe68b823	-0.22726493
67	0x3eac599c	0.33662117
68	0xbe04c293	-0.12964849
69	0xbe9d767a	-0.30754453
70	0x3d874479	0.06604857
71	0x3e99900e	0.29992718
72	0xbd99843a	-0.07495923
73	0x3ea1c9a0	0.3159914
74	0x3c80fc8d	0.015745426
75	0xbd1dcb60	-0.03852403
76	0x3deac2b6	0.114629194
77	0x3ec5ceb6	0.3863427
78	0x3ec0ddc3	0.3766919
79	0x3d3696b3	0.04457731
80	0x3e7f7628	0.24947417
81	0x3d8538ff	0.06505012
82	0xbd059743	-0.032614958
83	0x3e4395f1	0.19100167
84	0xbc799cbd	-0.015235123
85	0x3e756276	0.23963341
86	0x3e2bed16	0.1678966
87	0x3eb07255	0.34462228
88	0xbea32723	-0.31865796
89	0x3e2d8a70	0.16947341
90	0x3eb3a89a	0.3508957
91	0x3ed7a82e	0.42120498
92	0xbe905b07	-0.28194448
93	0x3e82ca44	0.2554494
94	0x3eb8a023	0.36059675
95	0x3ec8d4c0	0.39224815
96	0xbe5bd07e	-0.21466252
97	0x3eba799c	0.36420906
98	0x3ea2a555	0.31766763
99	0x3e8299cc	0.25507963
100	0xbbe1e520	-0.006893769
101	0xbe490474	-0.19630605
102	0x3e75199a	0.23935547
103	0x3eaa2053	0.33227786
104	0xbe2ebe99	-0.17064895
105	0x3d1b64be	0.037937872
106	0xbd1b213c	-0.03787349
107	0x3ead12e9	0.3380349
108	0xbeafb78f	-0.34319732
109	0x3e3e4a88	0.18583119
110	0xbef2ad39	-0.47397783
111	0xbf077e04	-0.5292666
112	0xbe80270a	-0.25029784
113	0xbeb04b3c	-0.344324
114	0xbe129a8a	-0.14316764
115	0x3da2cf02	0.0794964
116	0x3db72320	0.089422464
117	0x3d9e534d	0.07730732
118	0xbe745122	-0.23859075
119	0xbe849e7e	-0.2590217
120	0xbe7e85e8	-0.24855769
121	0xbdc317a6	-0.09525995
122	0x3eb8ccf2	0.3609386
123	0x3d99baa0	0.07506299
124	0xbe63aa8d	-0.22233029
125	0xbda3dbb2	-0.08000888
126	0x3efc32d1	0.4925752
127	0xbdd22b51	-0.10262168
128	0xbee8c3b5	-0.45461813
129	0xbefcaf95	-0.49352708
130	0xbdbed5f7	-0.09318154
131	0x3eaf5a3f	0.3424854
132	0x3e481c28	0.19541991
133	0x3d1dd016	0.038528524
134	0xbd58c38c	-0.052920863
135	0xbc239df4	-0.009986389
136	0x3ea946ab	0.33061728
137	0x3e06a1c2	0.13147643
138	0x3ea693c6	0.32534617
139	0xbdb725db	-0.08942767
140	0x3d9873e4	0.074439794
141	0x3d85e985	0.06538681
142	0x3e9f1bcf	0.31075904
143	0xbe81cc52	-0.25351197
144	0xbd395605	-0.04524805
145	0x3ec17422	0.37783915
146	0xbea46a12	-0.32112175
147	0x3e8fde0d	0.280991
148	0xbd8365f2	-0.06415929
149	0x3e7850b9	0.24249543
150	0xbeb43cfb	-0.35202774
151	0xbd9a2291	-0.07526124
152	0xbe9aa069	-0.30200508
153	0x3e0ea84d	0.13931389
154	0xbdceb363	-0.10092809
155	0x3eb11a7a	0.34590513
156	0x3ef31f3d	0.4748477
157	0xbe809c53	-0.25119266
158	0x3e361cc4	0.1778441
159	0xbee3b60b	-0.44474825
160	0xbe150bad	-0.14555235
161	0xbdafdbff	-0.08586883
162	0x3b688d3d	0.0035484575
163	0x3e8ae618	0.27128673
164	0x3e77de87	0.24205981
165	0x3e260f51	0.1621678
166	0xbe52d0e3	-0.20587496
167	0x3af92878	0.0019009253
168	0x3f17f8a7	0.5936379
169	0x3cae3672	0.021266196
170	0xbd677ba0	-0.056514382
171	0xbea1470f	-0.31499526
172	0xbe2877e8	-0.1645199
173	0xbd84fc4b	-0.064934336
174	0x3e585735	0.21127017
175	0x3e1fd68b	0.15609185
176	0x3deeb68e	0.11655913
177	0x3eabc43f	0.3354816
178	0x3e9f9331	0.31166986
179	0x3e32882a	0.17434755
180	0x3e87959b	0.26481327
181	0xbe35a747	-0.17739592
182	0xbe91305a	-0.28357202
183	0x3df7086d	0.12062154
184	0x3e1f37c0	0.1554861
185	0xbe885e69	-0.2663453
186	0xbdc33c61	-0.09533001
187	0x3ead9aee	0.33907264
188	0x3d984bf9	0.07436366
189	0x3e067428	0.13130248
190	0xbe553cbd	-0.20823951
191	0x3d3188c1	0.04334331
192	0x3cd46378	0.025926337
193	0xbea00498	-0.31253505
194	0x3ebacd60	0.36484814
195	0x3d9708d6	0.07374732
196	0xbeb79f27	-0.3586361
197	0x3e66f103	0.22552876
198	0x3ec1aab5	0.37825552
199	0x3da6250b	0.08112534
200	0xbdfeabb4	-0.124350935
201	0xbe684caf	-0.22685502
202	0x3e13b51a	0.14424554
203	0xbe6327e9	-0.22183193
204	0x3d8ebd7b	0.06969734
205	0x3db55ae2	0.08855225
206	0x3ebb66d2	0.36601883
207	0xbea1629a	-0.3152054
208	0x3c4a4369	0.012345173
209	0x3e3374c7	0.17525016
210	0xbe79ac0c	-0.24382037
211	0xbd959fd8	-0.073058784
212	0xbe9453c0	-0.28970146
213	0x3e6ff771	0.23434235
214	0xbe9f4f4f	-0.31115195
215	0xbdd5208d	-0.10406599
216	0x3e9b0e84	0.30284512
217	0x3cf62005	0.030044565
218	0x3ea4b4c7	0.32169172
219	0x3e6bb021	0.23016407
220	0x3ea2b194	0.31776106
221	0xbe91f4d3	-0.285071
222	0xbea70c07	-0.32626364
223	0xbea8509b	-0.32873997
224	0x3e907d80	0.2822075
225	0x3dd2134d	0.102575876
226	0xbb2be622	-0.00262297
227	0xbe83cc97	-0.25742027
228	0x3e081cb9	0.13292207
229	0xbe0e9337	-0.13923346
230	0x3e2536f8	0.1613425
231	0xbd40c33a	-0.047061183
232	0xbc347c7f	-0.01101601
233	0x3e51cf82	0.20489314
234	0xbe970670	-0.294971
235	0x3d327147	0.04356506
236	0xbe5c43ff	-0.21510313
237	0x3e6049d5	0.21903165
238	0xbcced8fe	-0.025249954
239	0x3eb6e26f	0.3571963
240	0xbe84c25e	-0.2592954
241	0x3eacd0a6	0.33752936
242	0x3e37ce24	0.1794973
243	0xbd5e1a0f	-0.05422407
244	0x3e4bb709	0.19894041
245	0x3d1a6cd1	0.03770143
246	0x3d3d78b0	0.046257675
247	0x3e955421	0.29165748
248	0xbeb3c9a0	-0.35114765
249	0x3e88e832	0.2673965
250	0xbd5a5b17	-0.053309526
251	0xbdcd1840	-0.10014391
252	0x3ed2cd33	0.4117218
253	0x3eb2d1e5	0.34925762
254	0x3e76e81c	0.2411198
255	0xbd076c10	-0.03306204

out_b f4 [11]
0	0xbc138524	-0.009003911
1	0xbd4c7daa	-0.04992453
2	0xbc820bba	-0.015874732
3	0x3d800fed	0.062530376
4	0x3db5b72f	0.0887283
5	0xbd55d881	-0.052208427
6	0xbc900ac4	-0.017583258
7	0xbb52073e	-0.0032047774
8	0x3caf7bff	0.02142143
9	0xbcf0aff1	-0.02938077
10	0x3d3a80eb	0.045533102
