ae_weights.npz (npz, 15103 bytes, 12 tensors)

e1_W f4 [10, 30]
00000000: ded3 413e db4b 973d f4ce 8e3e 8e91 1e3e
00000010: 7834 33be 356c 993e e112 ac3e 3e98 943e
00000020: a8ae b9be 943c 16bf eb05 82be 28f7 3f3e
00000030: bb90 66bf 9704 19bd 9bcd 6ebe dc81 bcbe
00000040: 4003 a9be 7238 adbd ec13 263e e2e6 003f
00000050: f4eb 29be 2c79 243f b1b7 c8be edf4 1a3e
00000060: 107c c83e 0514 96bd 9619 cebe 4d25 b9be
00000070: eff9 5abe 4268 ad3e 59a2 85be c7a7 06be
00000080: 8d09 09bd 17be 363e 586e 003e 62e4 b23d
00000090: d72e e7be 8ae9 0ebe a3ac a33e b4c2 143f
000000a0: a3a3 15bf eb35 3b3f d8d1 203f 1b09 9d3e
000000b0: 4634 f83d 13d4 8abe 10ef 173f c02c 693f
000000c0: 9035 3e3f 4365 333f 5874 183e 3f81 febe
000000d0: 74c0 27bd 1387 c73e 2160 0dbf 1c59 133d
000000e0: 2e54 083e 43c2 be3e 1a57 03bf b9dd 9abe
000000f0: 0098 9cbd c0c0 00bf 64e6 593f 267d ddbe
00000100: 6453 763e 2175 8fbe 9f53 353f 993d 1a3f
00000110: 9444 8c3e 1c16 85bf 8ebb 73bd 6d42 903e
00000120: 4694 0a3f 1b1f 87be a3cf 2a3f a20d 1abf
00000130: f621 93be c9a7 013f 74ae 0a3d edc1 653f
00000140: 7ffc eb3d 3fea 9bbe 5275 5ebe cbb8 e1be
00000150: ea81 0abf 6339 843d 7aea 903e b2ee 0c3f
00000160: cafb 9cbe 5f43 4a3f bb05 bfbc d015 373f
00000170: bfd3 a0bd 5ef2 d0be bc96 773d a8f9 523e
00000180: 735e a33e d5ba a7be c266 16bf a4d8 32bf
00000190: 8ac4 4f3e ba20 e83e 64f8 e0bc dc7d 0dbf
000001a0: 1b7f 5e3e 0902 20bf ce85 9fbe 997f 9e3e
000001b0: 91e6 7ebf 4a1e 4e3e f3d2 9cbe 097a 593c
000001c0: 4305 aa3b ae55 923d 9060 ab3e c948 dcbe
000001d0: 194e 163f a340 7a3e 1ce8 d13e 4c4f 163f
000001e0: 9bdd 963e 1971 ea3e dff1 293d 3170 1ebf
000001f0: 39ee 933c 4911 f0be bdcd 05bf 4c22 903c
00000200: 685d 80be 9224 01bf 8f70 f0be 3a3e fb3d
00000210: 21e4 673e 0fb0 f33e d5f6 c8bd 127d 853e
00000220: 3526 073f 1cf0 df3e d0b0 87bf ecdc 123f
00000230: 86d1 f13d 428f 593e 5bee e23d c93a c93d
00000240: 7e88 603d e67a 16be 4bc3 64bf 6de4 9e3d
00000250: 56fe a9be 6fb4 243f 7ef5 62be 8d08 4b3e
00000260: ad71 98be 44e8 3abe 2374 723d b35e 24bf
00000270: f8fd 733e 8cb5 93bd 9daf 03bf a8dd 85bf
00000280: 69fc 883e c074 b1bd a0ed 45be 2acb 02be
00000290: 464b 2f3f 042b 78bd b55a 053d f666 13bf
000002a0: df42 443f 2776 093f 6940 b83e 8afa 183d
000002b0: 7552 a03e 074a 183e ed3e 053e 6831 13bd
000002c0: 3c5f 2abf 9540 ea3e 55eb 53bf 081b 0f3e
000002d0: d727 c7bd 3a49 d2be 7e20 d13e 25fe 21be
000002e0: 42b4 1bbe e356 0c3e 6781 c4bd 43c8 193f
000002f0: c7ed 283e 8629 87be f1bb 58bf 1f36 14bf
00000300: 70ae fa3e ce1f 8cbd a57c 41be 1c5f 353f
00000310: 7d25 0cbf 95ad 1abe ee95 49be 0e48 c23e
00000320: a48b acbe c455 a3be c6dd 3abf 014b 8f3e
00000330: 92a4 8a3e f91d 65be 2690 fb3d 924a 01bf
00000340: e934 47be 3e3e 3d3f e501 013e 7dfe 6a3f
00000350: c6d7 7abe e1ce 1f3e c7fb 26be 3c22 2b3e
00000360: b674 ac3d 1e24 2ebe ae66 b4be f9bd 9f3f
00000370: 9585 04bd 6106 5ebf df3c a7be 0c32 813e
00000380: abad c9be ffc3 153f 2c9f e83e 513e f13d
00000390: 505e 43be 0cc7 a5be 74a9 91be 98dd 29bf
000003a0: e474 fa3e 3fde 453f e2ed 20bf ea82 11bf
000003b0: 5f9e 3dbf d495 e3be 70d6 adbf cbfb 24bf
000003c0: 1b9f 1b3f 9bfc 27be 11b1 cb3e de90 8cbe
000003d0: d265 363f 92df 5fbd 4d32 6fbe d9e7 8f3f
000003e0: 15bf ccbd 767e 11bf c3e0 143e cd0b babc
000003f0: 8b0b f63e efc3 febe 9b1d bd3e 4e06 953e
0.18928477 0.07387515 0.27892268 0.15485212 -0.17500484 0.29965368 0.33608153 0.29022402
-0.36266065 -0.58686185 -0.2539514 0.18746626 -0.9006459 -0.037357893 -0.2332062 -0.36817825
-0.33010292 -0.08458032 0.16218537 0.503523 -0.16593915 0.64247394 -0.39202645 0.15132494
0.39157152 -0.07328037 -0.40253896 -0.3616127 -0.21384405 0.33868605 -0.26100424 -0.1314994
-0.033456374 0.17845951 0.12542093 0.08734967 -0.45152923 -0.13956276 0.3196765 0.58109593
-0.58452815 0.7312915 0.62820196 0.3067101 0.12119345 -0.27114925 0.59349155 0.9108391
0.7430048 0.7007639 0.14888132 -0.49707982 -0.040955022 0.3897024 -0.55224806 0.035973653
0.13313362 0.37257585 -0.5130478 -0.30247286 -0.07646179 -0.50294113 0.85117173 -0.43259543
0.24055248 -0.2801905 0.7083072 0.6025024 0.2739607 -1.0397372 -0.059505038 0.2817568
0.541325 -0.2639092 0.6672308 -0.6017705 -0.28736848 0.50646645 0.033857778 0.8974903
0.11522769 -0.30452153 -0.21724442 -0.44086298 -0.54104483 0.06456258 0.2830389 0.5505172
-0.3066085 0.7900905 -0.023318162 0.7151766 -0.07852887 -0.4080991 0.060446486 0.20603049
0.31907997 -0.3275973 -0.58750546 -0.6986182 0.20289817 0.45337468 -0.027462192 -0.5527017
0.21728174 -0.62503105 -0.31156772 0.30956724 -0.99570566 0.20128742 -0.3062969 0.013273724
0.0051886155 0.07145248 0.3347211 -0.4302428 0.5871292 0.2443872 0.40997398 0.5871475
0.29465947 0.45789412 0.041490432 -0.6188994 0.01805793 -0.46888188 -0.52267057 0.017594479
-0.25071263 -0.50446427 -0.46960875 0.12267728 0.22645618 0.4759526 -0.098127045 0.26071984
0.52792674 0.43737876 -1.0600834 0.5736835 0.118075415 0.21246055 0.11080619 0.098256655
0.05481767 -0.1469532 -0.89360493 0.077584125 -0.33201855 0.6433782 -0.2216396 0.1982748
-0.29774228 -0.18252665 0.059192788 -0.64207 0.2382735 -0.07212362 -0.5143984 -1.0458269
0.26755074 -0.086648464 -0.19328928 -0.12772813 0.68474233 -0.060587898 0.032557208 -0.5757898
0.7666454 0.5369591 0.3598664 0.037348308 0.3131291 0.14871989 0.13012286 -0.03593579
-0.66551566 0.45752397 -0.82780963 0.13975155 -0.09724396 -0.41071492 0.40845102 -0.15819605
-0.15205482 0.1370502 -0.09594994 0.600712 0.16496955 -0.26398867 -0.84661776 -0.5789508
0.4896121 -0.06842004 -0.18895204 0.7084825 -0.547447 -0.15105279 -0.196861 0.37945598
-0.33700287 -0.3190137 -0.7299465 0.2798691 0.27078682 -0.22374715 0.122833535 -0.5050441
-0.19453777 0.739231 0.12598379 0.9179457 -0.24496374 0.15606262 -0.16306983 0.16712278
0.08420698 -0.17005965 -0.35234588 1.247985 -0.032353956 -0.86728483 -0.32663628 0.25233495
-0.3939031 0.5850219 0.45433939 0.11779464 -0.19078946 -0.32378423 -0.28449595 -0.6635375
0.48917305 0.77292246 -0.6286298 -0.56840384 -0.7406978 -0.44450247 -1.3581066 -0.64446706
0.6078965 -0.16404955 0.39783528 -0.27454275 0.71249115 -0.054656573 -0.23359032 1.1242629
-0.099973835 -0.5683359 0.14538865 -0.022710705 0.48055682 -0.4975886 0.3693665 0.29106373

e1_b f4 [30]
00000000: be41 003e eaa8 e73d 70a0 623d 2cbf b03c
00000010: bedc 423d f3f1 08bd 62b2 bc3c 06c9 213d
00000020: aa47 0bbd 9457 e6bc e006 3fbd a8f0 fc3c
00000030: fa04 bf3d e5e4 28bd fe9b f3bc c16b e9bc
00000040: 2045 87bd c674 a03d 2d6e c83c d565 733d
00000050: 2991 6b3b cb15 29bd 4276 81bc 0cee 3b3d
00000060: fcfe b83c 0a2b 05bd 0714 0c3c ed3e d93d
00000070: cd6e adbc c21b d43c
0.12525079 0.11311515 0.055328786 0.021575533 0.047573797 -0.033433866 0.023034278 0.03949835
-0.03400389 -0.028117932 -0.046637416 0.030876473 0.09327121 -0.041233916 -0.029737469 -0.028493764
-0.066049814 0.07834773 0.024466598 0.059423286 0.0035944676 -0.04128055 -0.01580346 0.045881316
0.022582524 -0.03251175 0.008549697 0.10607705 -0.021170998 0.025892142

e2_W f4 [30, 30]
00000000: 5b02 b7bd 618c 94bd 27d1 753e bd4e 2e3d
00000010: 12c5 84bd 9256 613e 2ba5 c93e 2e94 1c3e
00000020: ddff 3b3d 1018 d7bb f391 c3bd afeb 13be
00000030: a82c 52be dde6 593d 3654 36be 9ff8 083d
00000040: a1bc 01be fba6 49bd ab6a af3d 88e4 483e
00000050: a0ef 07bd ea18 9a3e 6c2c c3bd ab67 e23d
00000060: 3b10 b33e c954 71be 631f cabd 41d2 a9be
00000070: 6de3 b13e 87f9 6d3e 313d 7fbe f70d 2cbe
00000080: 323e afbc 0335 973d 9772 d9bd 6edd 5f3e
00000090: 9aee a0bd ef68 01be 4b6c b3be 718a b53e
000000a0: 1fd0 9bbe 5f05 50be 26c6 9c3e 17e1 6b3e
000000b0: 2b8e b83d 0268 90bd c8d1 bf3e fd21 f83e
000000c0: d434 bc3e 92f6 b43e 6c3e 3d3c defc c9be
000000d0: cc3d 1e3d 5209 823e b5a4 bdbe d87d 8abe
000000e0: bec9 dd3a 76f2 c73e 50c2 01bf f350 63bd
000000f0: a256 b33c d606 11bf 104d d83e b805 23be
00000100: c3f0 033d 9fd6 84bd 5675 013f c8c5 583e
00000110: 3472 ea3d 8082 38bf e095 bd3d 665b ca3d
00000120: 3221 5e3e 3751 06be 37ad 053f 9eda 8ebe
00000130: f5f8 b1bd 014d c03e 851b 0abf 630c d73e
00000140: 236d e5bb 1c32 7ebe 6988 cebe 06bc 03bf
00000150: 559b e7be 28cb 883d 6df7 37bd c09c c9bb
00000160: 10f9 c03d c5b6 bf3e ff9a 01bc 3393 fa3e
00000170: 4231 c5bd b8c5 6cbe 93dc 713d 8fdf 843e
00000180: 22cf ab3d 7d89 42be b085 b7be 4dfa 44bf
00000190: 048d 243e 852c 933e 3731 01be c51b 6dbe
000001a0: 6bf4 563e 98bd 14bf 92e1 f5be 9547 833e
000001b0: cd11 1abe dc45 bb3d 8b34 afbe 9b44 433d
000001c0: 2e0e cebe 1d89 f73c f924 203e 5cac 9cbd
000001d0: f0db ac3e 260c 2f3e 46f5 463e 7218 973e
000001e0: dac8 cf3e 6e2b 63be 7dfc 4c3e 1ab4 cbbe
000001f0: b6f8 febe 236c 55be bd4d 37be ec70 9d3d
00000200: b651 adbe 32a1 52bf 5227 bfbe 2def 313f
00000210: b261 87be 647f f13d bc87 38be ac78 1d3e
00000220: bafc ab3e b9f3 4c3e 2321 cbbb d43c 853e
00000230: 2949 043e 2841 edbc 17f5 293c 9bc1 ffbe
00000240: f77d cb3d 381a 33be 483c 503c 7ff8 2ebf
00000250: e40d a0be 7640 9f3e 79a9 2bbe 5727 963d
00000260: f418 ddbd 5406 27be a50a 1a3d b3a7 91be
00000270: 953f 653e 3b0f 26be a0ae 87be 385c 46be
00000280: 57d7 cd3e 8089 c7bc ab0f 57bd fa90 a63d
00000290: ffef bd3e 8d2f aa3e 0ebb b23c b341 c9bd
000002a0: d296 9e3e d71e 983e e60b 8d3e 6d97 983c
000002b0: 61ae a1bc a829 69be c11b f33d fc49 ed3d
000002c0: 1991 1bbf 5f64 953e a6bc 5dbe 29c1 1bbe
000002d0: 048c b33d 79f2 fabd 3235 8ebd dca7 aebd
000002e0: 9d6e 7bbc 9b38 0a3e 2961 f93d fc07 853e
000002f0: d65d 86bd 45ad d93d 3c9e 90be fd6e 2dbe
00000300: 97bd 833e 2490 2f3e ef67 453e e3d8 b33e
00000310: b73b 81be c1a7 8b3d 4688 18be 14f9 c63d
00000320: 81b1 55be dc96 63be 4370 e8be 0bd8 a8bc
00000330: 01a0 363e ecbe 1b3c 28dc 193d 68ea 81be
00000340: 1445 573e 6285 853e 4437 f73d 89c6 9c3e
00000350: ad05 2abe 63cc 213e 63cc ffbd cf13 1f3e
00000360: 4a1c 513d 7c5c 93be 663e e0bc 02c3 303f
00000370: d7ea 35bc c439 22bf 72ac ecbe a796 263e
00000380: cf87 5abd 0ab6 d8bd c7fa 953e 4490 c33c
00000390: a07c 973c 7284 83be 23c3 58be 1499 d6be
000003a0: 4f59 563e bd46 e23d b0f7 a0be 83ac d4be
000003b0: 858f 13bf ff2d 2e3e d109 143e 683c 98be
000003c0: f170 ce3e fb5f 18bd 8a80 4b3e 513f 28be
000003d0: 64f2 d83e 9109 7f3d a663 acbd 1beb 1e3f
000003e0: 4a8a e0bd 77a9 f0be b721 243d 0387 a43c
000003f0: 618d 663e 18fc 9dbd 67ba 813d 5d25 23bd
-0.08935996 -0.07253338 0.24005567 0.04255556 -0.06482901 0.2200568 0.39383826 0.15290901
0.045898307 -0.006564148 -0.09549322 -0.14445375 -0.20524848 0.053198684 -0.17805561 0.03344023
-0.12669612 -0.04923151 0.08565267 0.19618428 -0.03318751 0.30097133 -0.09529957 0.11054929
0.3497332 -0.23567499 -0.09869268 -0.33168224 0.34743825 0.23239718 -0.24925686 -0.16802202
-0.021391962 0.07383158 -0.106175594 0.21861812 -0.0785801 -0.12637685 -0.35043558 0.35457185
-0.3043222 -0.20314549 0.30619925 0.23035084 0.090114914 -0.07051088 0.37464738 0.4846343
0.36759055 0.35344368 0.011550527 -0.39450735 0.038633153 0.25397736 -0.37039724 -0.27049136
0.0016921086 0.3905217 -0.5068712 -0.05549712 0.021891896 -0.56651056 0.42246294 -0.1592015
0.03221203 -0.06486248 0.50569665 0.21169198 0.11447564 -0.7207413 0.09257102 0.09880714
0.2169235 -0.13116919 0.5221743 -0.27901167 -0.08690063 0.3755875 -0.5394824 0.42001638
-0.0070015355 -0.24823803 -0.40338448 -0.51458776 -0.45235696 0.06679374 -0.044913698 -0.0061527193
0.09422505 0.3744413 -0.007910489 0.4894043 -0.09628536 -0.23122299 0.059048247 0.25951812
0.08389117 -0.1899776 -0.35844183 -0.7694443 0.16069418 0.28744903 -0.1261643 -0.23155124
0.20991676 -0.581018 -0.4802366 0.2564055 -0.15045853 0.09144184 -0.34219775 0.04767285
-0.40245193 0.030216748 0.15639104 -0.076500624 0.3376155 0.17094478 0.19429502 0.29510838
0.40582925 -0.22184536 0.20018192 -0.39785844 -0.49799126 -0.20842032 -0.17900749 0.07687554
-0.33851403 -0.82277215 -0.37334687 0.6950558 -0.26441723 0.11791876 -0.18020529 0.15378064
0.33591253 0.20014848 -0.0061990186 0.2602297 0.12918533 -0.028961733 0.010373375 -0.49952397
0.09936135 -0.1749047 0.012709685 -0.68347925 -0.31260598 0.31103867 -0.16763867 0.07331722
-0.10795775 -0.16311008 0.037607808 -0.28448257 0.22387536 -0.16216747 -0.26500416 -0.19371116
0.40203354 -0.024357557 -0.052505177 0.08133121 0.37097165 0.33239403 0.02181771 -0.09826984
0.30974442 0.2971103 0.2754814 0.018626893 -0.01973647 -0.22769797 0.11870528 0.11586377
-0.60768276 0.2917814 -0.21653995 -0.15210404 0.0876694 -0.12253279 -0.0694374 -0.085281104
-0.0153461965 0.13498156 0.12176735 0.25982654 -0.065608665 0.10628752 -0.28245723 -0.1693687
0.25730583 0.17144829 0.19277929 0.3512641 -0.2524087 0.06819106 -0.14895734 0.09715477
-0.20868494 -0.22225517 -0.4539815 -0.02061083 0.17834474 0.009505969 0.037563473 -0.2537415
0.21022445 0.26078326 0.12071088 0.3062022 -0.16603728 0.15800624 -0.124901555 0.155349
0.05105237 -0.28781497 -0.027373504 0.6904756 -0.011103353 -0.63369393 -0.46225315 0.16268407
-0.053352173 -0.10581596 0.2929289 0.023872502 0.018492043 -0.25686985 -0.21168189 -0.41913664
0.20932506 0.110486485 -0.3143897 -0.41537866 -0.5764087 0.17009734 0.1445687 -0.29733586
0.40320542 -0.03720091 0.19873253 -0.16430403 0.4237243 0.062264983 -0.08417444 0.6207749
-0.109638765 -0.4700429 0.040071215 0.02008391 0.2251487 -0.07714099 0.063343816 -0.039830554

e2_b f4 [30]
00000000: caba 753d 9f3d 82bc f686 0e3d f2dc 54bd
00000010: 9a4b d73c 3153 7e3d e822 253d 6cc6 07bc
00000020: 1cf6 073d b24f 5a3c 2778 3b3d 57c8 a53c
00000030: 80b1 583c 73f5 6f3d 0220 a23d e610 513d
00000040: 7306 ba3c 9e2a 5bbd 3f4c 77bd 8e61 abbc
00000050: 5599 b6bd 2a06 7abd eab9 a73d 864f 2ebd
00000060: d44b 14ba f418 dc3c ab84 91bc 62da 0c3d
00000070: daa6 82bd 43de 71bb
0.05999259 -0.015898524 0.034796678 -0.051968522 0.026281167 0.062091056 0.040316492 -0.008287054
0.033193693 0.013324665 0.045768883 0.020237131 0.013225913 0.058583688 0.07916261 0.051041506
0.022708153 -0.05350744 -0.06037545 -0.020920541 -0.089159645 -0.061041035 0.08189757 -0.04255631
-0.0005657051 0.026867367 -0.017763456 0.034387954 -0.06379481 -0.003690616

e3_W f4 [30, 13]
00000000: 2510 083d 3b1a 2b3c 93e3 7d3e 3cd0 993d
00000010: 5f36 a9be 9a1f ec3d 13d2 973e dc5b c83e
00000020: d9d6 91bc d354 50be 653c 4fbe b6f7 50bb
00000030: a3cd ddbe 11a9 ccbc 2ced a1be 14c8 c8bd
00000040: 8df6 57be 6e9c 1a3e 5573 f33d 306d 833e
00000050: 56e2 ac3d ea66 253e 9a5d f3bd c505 633d
00000060: 1b6e 573e 1a37 263c 4150 78be 687c 3bbe
00000070: 17a1 03bd 01fe 823d f5a5 ac3d 4163 98bd
00000080: 0364 ebbc f976 2c3e f7e5 c13b b97f cbbc
00000090: 65e1 47be 28f8 7c3d 5224 573e bd18 b33e
000000a0: 0820 25be 946b 03bd bfb9 a03e 9f89 a03d
000000b0: 240a 803d 19f8 82be 7765 d83e 949c f63e
000000c0: 8dd6 d73e 0c94 9b3e 8231 fbbe 2fb5 abbe
000000d0: 2cba 8abd 2791 c03d 3314 0cbd a2b3 febb
000000e0: 81c2 0c3f dbaa 2f3e adf5 6ebe ae66 703d
000000f0: 4fc1 3abe fef5 e4bd 5fa8 d73e 60d1 17be
00000100: 1275 6d3d bacb b0bd cf43 ef3e aecc 933e
00000110: 61c7 203e 6a0a 07bf e5c8 eb3c 421f eb3d
00000120: bbb1 903e 12cd d0bd c6f7 f03e 6721 c0be
00000130: ed27 69be b20c 5f3e fcc6 0bbd 6745 063f
00000140: d73a 2d3e 6520 4fbe 8d4d 803d a1c2 73be
00000150: 5fc2 c0be 4c46 803e cf01 4d3e b7d8 a83e
00000160: 0eba 6dbe 3d42 ff3e 2aa9 02be ffc6 b43e
00000170: da3c cabc d352 7fbd 1153 7d3d 804c af3e
00000180: abb9 773d 5d46 75be 99bc 88be c0db b8be
00000190: 5828 3d3e 60ae 663e 6414 8abd a0ec 9ebe
000001a0: 65a7 4a3e 8aa2 6bbe 60bd cabd 6a45 e43d
000001b0: 8a8f ddbe 50eb 8f3d 5656 c53d 7120 933d
000001c0: bdb8 ee3d b6f0 cc3d fb68 183e 9d40 a93d
000001d0: 7e5e a93e 7306 6b3e ff9d 9a3e 5972 9e3d
000001e0: 84e8 8c3e 2b9a 953d 2839 693d ccc8 27bd
000001f0: 86f7 2b3d 52b5 d9bd 8fd4 f23c 6bed 453d
00000200: afd9 36be ff0c da3d ba7d 89be e6e1 cc3d
00000210: 48a3 b83d 2436 933e 7c15 2fbd 5ea6 a03e
00000220: 359e 9a3e 06ac af3e 63ee 5cbf cdcb 893e
00000230: cdfc 5c3d 3ece d43d 4736 923d b6ef c63d
00000240: 5ee4 d33d 81b8 3fbe 786b 0cbf 17a0 323e
00000250: aa6c f7bd 2e56 8c3e 3018 91bb b3cd bebc
00000260: bc54 6fbe fdbc 33be bea4 72bb a054 d0be
00000270: c65f 243e 2e05 783e 4dc2 3e3e a3ce 12bf
00000280: 769f 2a3e a675 0bbe f02d eebd 7dfe 5a3e
00000290: 1f67 203f 4471 3bbe c71c 263b 81c2 8bbe
000002a0: 7e19 c53e 17c1 843e d182 b33e 295d 4e3c
000002b0: dfd5 423e 9f74 193e 735e 053e 498d 7abd
000002c0: eb8d b4be be7a 113e 896a 15bf d29d 5abe
000002d0: f503 67bd bf44 0fbe 942e d93c 8d57 3e3d
000002e0: a8be 0cbe 2a7e 913d eed2 89be c4db b63e
000002f0: 020c c13c c1ed a8bc 20d6 4dbf 49a4 89be
00000300: b8b7 813e a623 1dbd b7f9 44bd d000 0e3f
00000310: 55ef 3f3e af86 6a3e 900d 8ebd 57be 78be
00000320: 12a4 0ebe 77a3 3fbd 7bf1 b63c fe04 df3d
00000330: 6501 1f3f ce26 0ebe a1ff 9c3d 22fa 94be
00000340: 76bc 3cbd da17 cb3e cd42 af3c 6726 053f
00000350: 256f bdbe b021 4e3d 0f8a d5bd 9576 3c3e
00000360: fa23 4dbe 69c7 00bf b0e3 67be 0886 3d3f
00000370: 9e0e a83d 77b1 18bf d357 aebd 0813 2c3e
00000380: cc5d 2fbe 874b 953e d7d1 513e 9748 91bd
00000390: 3fac c4bd 1221 c1be 4477 cdbe 51b5 cfbe
000003a0: 9f35 903e 7320 f83e f112 49bd 0da6 7abe
000003b0: 10a9 15bd ec50 363c eef3 f9bc 5f61 3ebe
000003c0: f3c5 a13e 5744 ce3c 48e3 a73e 9155 1bbe
000003d0: a3db e03e 266b 8b3b a8ec 553e a224 213f
000003e0: 1ea1 03bd 7108 8bbe d358 9c3c 36c1 42bd
000003f0: 6deb a13e a78b 93be dba8 743e 4671 203e
0.03321852 0.010443266 0.24793844 0.07510421 -0.33049294 0.11529465 0.2965246 0.39132583
-0.017802643 -0.20344858 -0.20237882 -0.0031885928 -0.4332095 -0.02498296 -0.3162626 -0.09803787
-0.21090145 0.15098736 0.11887232 0.2566924 0.08441608 0.1615254 -0.118830875 0.055425424
0.21038096 0.010144973 -0.24249364 -0.18309176 -0.03213605 0.06396104 0.08430091 -0.07440806
-0.028734213 0.1684226 0.0059173065 -0.024841176 -0.19519575 0.061760098 0.21009949 0.3497981
-0.161255 -0.032085016 0.31391713 0.07838749 0.06251934 -0.25579908 0.42264912 0.48166335
0.42155877 0.30386388 -0.4906121 -0.3353667 -0.06773791 0.094026856 -0.03419895 -0.0077728787
0.5498429 0.1715502 -0.23335905 0.058691673 -0.18237804 -0.11179732 0.42120644 -0.14825964
0.057972975 -0.08632608 0.4673142 0.28867096 0.15701057 -0.52750266 0.028782317 0.11480571
0.28260598 -0.10195364 0.47064036 -0.37525484 -0.22769137 0.21782187 -0.034125313 0.5244965
0.16916977 -0.20227201 0.06264792 -0.23804714 -0.37648293 0.25053632 0.20020221 0.3297784
-0.23215505 0.49855223 -0.12759843 0.35308072 -0.02468722 -0.062334847 0.061846796 0.34238052
0.0604798 -0.23952623 -0.2670639 -0.36105156 0.18472421 0.22527456 -0.067421705 -0.31039906
0.19790418 -0.23011222 -0.09899402 0.11146052 -0.43273574 0.07027304 0.09635608 0.07183922
0.1165633 0.100068495 0.14883797 0.08264277 0.33079904 0.22951679 0.30198666 0.07736654
0.27521145 0.07304796 0.056939274 -0.04096298 0.041984104 -0.10630287 0.029642371 0.048322123
-0.17856477 0.1064701 -0.26853734 0.10004024 0.090155184 0.28752244 -0.0427451 0.31376928
0.30198827 0.3431093 -0.8630125 0.269133 0.053952027 0.103909 0.07139259 0.0971369
0.10346292 -0.18722726 -0.54851484 0.17443882 -0.12081273 0.274095 -0.004427932 -0.023291444
-0.23372167 -0.17552562 -0.0037024464 -0.40689564 0.1605216 0.24220726 0.18628807 -0.5734655
0.16662392 -0.13619098 -0.11629856 0.21386142 0.6265735 -0.18304926 0.0025346742 -0.27296832
0.38496011 0.25928566 0.35060742 0.012595453 0.19026898 0.14985894 0.13024311 -0.061169896
-0.35264525 0.14206979 -0.58365685 -0.21349266 -0.056400258 -0.13991068 0.026511468 0.046470214
-0.13744605 0.07104142 -0.2691874 0.35714543 0.023565296 -0.020621182 -0.80404854 -0.26883152
0.2533548 -0.038364075 -0.04808971 0.5546999 0.18743642 0.2290294 -0.069361806 -0.24291359
-0.13929775 -0.04678675 0.022331944 0.10889624 0.621115 -0.1388199 0.07665945 -0.29097086
-0.046078168 0.39666635 0.021394158 0.5201172 -0.3699886 0.050325096 -0.10426723 0.1840461
-0.20033255 -0.50304276 -0.2264545 0.7403264 0.08205913 -0.5964579 -0.08512845 0.16804135
-0.17125624 0.29159185 0.20490204 -0.070939235 -0.09603166 -0.37720543 -0.40130055 -0.4056802
0.2816591 0.48462257 -0.04909033 -0.24477406 -0.036538184 0.011127692 -0.030511823 -0.18591832
0.31596336 0.025179071 0.3279059 -0.1516936 0.4391757 0.0042547164 0.20891058 0.6294652
-0.032136075 -0.27154878 0.019085323 -0.04754754 0.31624928 -0.28817484 0.23892538 0.1566821

e3_b f4 [13]
00000000: 493b b0bc b0ed d53b 9ee9 adbc 123d ba3b
00000010: c9e5 8f3d 2bc5 68bc fa3d 9fbc d018 1c3d
00000020: 23ad c53c 32e6 b63c 7c48 0dbd 3ba9 c4bc
00000030: 72d9 15bc
-0.021512644 0.0065285787 -0.021229561 0.0056835497 0.0702625 -0.014207165 -0.019438732 0.0381096
0.02413041 0.022326563 -0.034492955 -0.024006477 -0.009146081

d1_W f4 [13, 30]
00000000: 993a 66bb cfdc 89bd 908c 563e 58c4 ff3d
00000010: 1e61 1ebe 8f0c 9e3e a5ea 043f 576f cb3e
00000020: 8053 8dbe b4fe 81be 66d4 e3be 54a1 0e3e
00000030: 82fa 57bf 977d 0fbe ff8b a8be 2cb1 62be
00000040: 2d94 7bbe f7ce 7abd 62c3 4a3e 73fb c03e
00000050: a279 3f3b d20c fe3e 851c 0dbe 21b1 a53d
00000060: 0d58 943e bbe7 e33d 9ed8 0fbe db51 27be
00000070: fbd7 37be 3887 a93c 452e f0be d9f0 08bd
00000080: 8d12 073d 19d3 7e3e 9cac 273e 8363 0f3e
00000090: 6fdf 68be adbd eebd 57a8 863e 7824 413f
000000a0: c6d0 dbbe e339 2b3f 0f71 e53e d691 a63e
000000b0: 9811 313e c164 6fbd 5c11 303f 0806 3a3f
000000c0: 7312 483f 9468 cd3e dc55 1b3e 488d 1ebf
000000d0: 0169 e9bc 25b2 963d 713a 00bf 1ff8 233e
000000e0: 1ddd 583e 12af bf3e 4ccc edbe f912 75be
000000f0: 3bb8 acbe 8122 10bf 2570 1b3f 8e6c f2bd
00000100: 57a1 ce3e aaae 1e3e c35e fc3e 6b83 493f
00000110: 86ce 533e f56e 1ebf 8781 8fbf b676 b73e
00000120: 736e d33e 7d9e 923c 3bf2 2c3f 8150 9fbe
00000130: a6bf 8dbe e683 803e 8f78 40be 4d79 153f
00000140: 4c70 a13e 1b56 77be caa2 05be 8c07 6abe
00000150: c414 44be 2d7b 5d3e 2998 de3e 7255 f33e
00000160: ca8a 97be 0927 f83e ee87 16be 78c9 1d3f
00000170: d5e1 47be 7ff0 5cbe 9e91 0f3e 0f28 473e
00000180: a660 863b b365 3cbe 80ac 06bf 9c79 cabe
00000190: 8aea 5d3b 6953 cd3e 61f1 03be fabc 9cbe
000001a0: 77cf ab3e 6571 a63c 0b12 42be 4c28 513e
000001b0: 82cf 5abf d109 9c3d f3d1 03be c8ae a03c
000001c0: fe6f 0ebe e0b6 ab3c bd0f 833e 6bbb 6dbe
000001d0: d475 3a3f 2549 aa3e dc70 a93e 0512 053f
000001e0: 8db2 483e 31df ac3e e9ca fb3d f076 793e
000001f0: ca31 a7bd a415 303f ddd6 e23d 2416 cd3e
00000200: 1a45 6dbe 90ba a73d 87f1 f4be fbd1 3f3e
00000210: 1912 113e 3b86 9f3e d193 b1be 463f ca3e
00000220: bc02 d43e 320a 813e 4bf8 283e 2355 923c
00000230: e5c7 6abf cc72 8e3e cff6 ff3e c872 ac3e
00000240: 42f2 273e 7b2b 6c3e b207 c7be 0d99 80bc
00000250: 6468 a1be 0f89 36bc 4fe8 29be 327c e939
00000260: db18 babe bbf6 07be eef1 413e ec19 eebe
00000270: 8752 e73d d9c8 a9bc 8d3c fabe f954 60bf
00000280: ff4c 803e 966e 143d 6881 7abe 45f1 68bd
00000290: a37e 2e3f 6cba 583d 70ab 2c3d fc87 14bf
000002a0: 0e8f 333f 6f94 9d3e e642 ee3e 5a77 05bd
000002b0: ace8 e13e 2731 ca3d 086b 403e 430a bf3d
000002c0: 5389 0fbf bd65 bd3e c94a 42bf 33c8 17bd
000002d0: 152c 18be b9ce 05bf 921c 3e3c 90a8 6d3e
000002e0: 8879 3dbf 78d6 933d 9524 cf3d 6a02 573e
000002f0: bb6c 013e 7143 26be a595 48bf 6978 983f
00000300: c289 bc3e ce30 15be 999e 713e 5b5f d23e
00000310: af32 09be 9dd0 693f 4524 42be db0d 043d
00000320: dc87 a0be 1e8a 9abe 6a78 b4be b87a fb3d
00000330: 2b49 973e de9f 43be 1d64 a93d a621 24bf
00000340: 7680 3dbe 35a4 f83e 16e1 2ebb 5315 5c3f
00000350: b1a3 aebe 4deb be3e 49b5 28bc ea7b a23e
00000360: 172a 23bb 4153 23be 01ca c3be fe09 ad3f
00000370: cb34 453e 370c 32bf 2540 acbe b4cd b63d
00000380: b357 95bd 753d 193f 43aa ba3e ea8a 0fbe
00000390: ba46 05be 277f e8be 9962 53be ba57 28bf
000003a0: 1127 073f e00b 183f 0954 14bf 4376 09bf
000003b0: 754f c8be 1d43 c8be b6f4 9bbf b9c2 c9be
000003c0: d6b4 fd3e ed85 99be db7a 433e 44cc 463e
000003d0: 71fc 243f 26be 3f3e 5746 8ebe 2291 4b3f
000003e0: a152 02be c228 603e 7132 753d 074c b8be
000003f0: aa7a 4d3e 5c16 26bf 277d fe3d 47ac 4cbd
-0.0035130142 -0.06731569 0.20952058 0.124886215 -0.15466735 0.30868956 0.5192054 0.39733383
-0.27602768 -0.25389636 -0.44497985 0.1392873 -0.8436662 -0.14012752 -0.3291931 -0.22137898
-0.24568243 -0.061232533 0.19801095 0.3769184 0.0029216786 0.49619156 -0.1378041 0.08090425
0.28973427 0.111281835 -0.14047477 -0.16339819 -0.17953484 0.02069436 -0.469103 -0.033432815
0.032976676 0.24885215 0.16374439 0.14002804 -0.22741483 -0.116572715 0.26300308 0.7544627
-0.4293272 0.66885203 0.4481282 0.3253314 0.17291868 -0.058445696 0.6877649 0.7266545
0.7815315 0.4011885 0.15169472 -0.6193433 -0.028492453 0.07358197 -0.50089175 0.1601262
0.21178098 0.37438256 -0.4644493 -0.23933019 -0.33734307 -0.5630265 0.60717994 -0.118371114
0.40357468 0.15496317 0.49291047 0.7871615 0.20684251 -0.61888057 -1.1211404 0.35832757
0.41295204 0.017897839 0.67557114 -0.31116107 -0.2768528 0.2510063 -0.1879599 0.58388215
0.31530988 -0.2415394 -0.1305038 -0.22854441 -0.19148546 0.21629019 0.43475464 0.47526127
-0.29598075 0.4846728 -0.1470029 0.6163554 -0.19519742 -0.21576117 0.14020392 0.19448875
0.004100877 -0.1839817 -0.52606964 -0.39545906 0.003386172 0.401027 -0.12885047 -0.30612928
0.3355672 0.020317743 -0.18952195 0.20425528 -0.8547288 0.0761906 -0.12873058 0.019614592
-0.13909909 0.020961225 0.25597945 -0.23216026 0.7283604 0.3325893 0.33093917 0.5198062
0.19599362 0.33764032 0.122945614 0.24361777 -0.081637934 0.6878302 0.11076138 0.40055954
-0.23170891 0.08189881 -0.4784052 0.18732445 0.1416706 0.31157097 -0.34683087 0.395014
0.41408336 0.2520309 0.16500966 0.017862862 -0.91711265 0.27821958 0.49992988 0.3368132
0.16401008 0.23063461 -0.3887306 -0.01569798 -0.31524956 -0.011141076 -0.16592525 0.00044533756
-0.36347088 -0.13277714 0.18939945 -0.46504152 0.11295038 -0.020725654 -0.48874322 -0.8762966
0.25058743 0.036238275 -0.24463427 -0.056870718 0.6816198 0.05291216 0.042155683 -0.58019996
0.7014016 0.30777308 0.46535414 -0.032584526 0.44122827 0.09872656 0.18790829 0.09328129
-0.56068915 0.36991683 -0.75895363 -0.03705616 -0.14860566 -0.5226856 0.011603491 0.23208833
-0.74013567 0.07218641 0.10114399 0.20997015 0.12639134 -0.16236664 -0.7835334 1.1911746
0.3682385 -0.14569399 0.23595656 0.41088375 -0.1339824 0.91333944 -0.18959148 0.032239776
-0.31353652 -0.301835 -0.3524812 0.12279266 0.2954801 -0.19103953 0.08271048 -0.64113843
-0.18506035 0.4856278 -0.0026684455 0.8597004 -0.34109262 0.37288895 -0.010297128 0.31735164
-0.0024896914 -0.15949728 -0.38240054 1.3518674 0.1925842 -0.6954989 -0.33642688 0.089259535
-0.07292118 0.598594 0.36458024 -0.14017835 -0.13015261 -0.4540951 -0.20643081 -0.6575886
0.52793986 0.5939312 -0.5794073 -0.5369608 -0.3912312 -0.39113703 -1.2184055 -0.39406374
0.4955203 -0.2998499 0.19089834 0.19413859 0.64447695 0.1872488 -0.2778804 0.7951833
-0.12726833 0.21890548 0.059862558 -0.35995504 0.20066324 -0.6487787 0.12426215 -0.049968984

d1_b f4 [30]
00000000: 8966 57bd 64da 30bd 1eae df3c 8cca 2bbc
00000010: 3a7c 233c b78b 7fbd 3b01 ac3b b017 0bbd
00000020: 949d 23bd 8492 0d3e 872a a33d 75bb 49bd
00000030: 90d3 17bd b40b 47bc 5240 d83c e3b7 0b3d
00000040: a07b 313c 9685 dfbc 7411 ebbb a88e 80bc
00000050: 4d1d d83c ee58 8fbd 0c01 c43c 4a11 65bd
00000060: 2a63 fe3c c1da bf3b 4173 be3c ceff f3bc
00000070: 0000 0000 af90 9bbc
-0.05258802 -0.043177024 0.027304705 -0.010485303 0.009978348 -0.0623891 0.00524917 -0.033958137
-0.0399452 0.13825423 0.07967096 -0.04925104 -0.037066996 -0.012148786 0.026397858 0.034110915
0.010832697 -0.027285378 -0.0071737114 -0.015693024 0.02638116 -0.06999384 0.02392628 -0.05592469
0.031053144 0.005854935 0.023248317 -0.029785063 0.0 -0.018989889

d2_W f4 [30, 30]
00000000: 59f8 043d ca0d 0cbf 6874 e33d ca17 afbc
00000010: bc38 d3bd c402 053e e3bf a93e 30a4 3f3e
00000020: ac4a 79be ff7e b8be 6d53 4ebe 93d2 2e3c
00000030: e552 0bbf ed81 e3bd ecb4 a4be 7961 03be
00000040: ad89 31be e370 e6bd 4dbe 8c3d c966 7c3e
00000050: 23e7 c03e c077 b73e cfe6 d5bd bd4b e83d
00000060: 84c5 9fbd c73c 5f3c 0b05 17be 8cde 3bbe
00000070: 3fab dcbe 77bd ac3d 667b 94be 54f7 84bd
00000080: 725c a6bd c273 9e3d f49c 273e 4133 cc3d
00000090: 1b83 ecbd 43c5 8cbd 677c 3b3e 773f c73e
000000a0: 2fb8 9abe baba be3e 26a6 cf3e 81ff 0f3e
000000b0: 68ed 653d ede8 e3bc 1676 da3e ce09 ed3e
000000c0: 2873 d63e db05 983e 8a20 5c3e 30c5 5fbe
000000d0: e115 b83d 2124 263e 9ec3 98be 2a6d 243e
000000e0: 9430 313e 3db6 5d3e 7def 72be fd4a 47be
000000f0: 8594 85be 394b cbbe eda8 d73e b8f8 29be
00000100: 68c4 413d e5af bebd 5313 ea3e 21ca 9f3e
00000110: 820d b13d 0839 07bf dbf1 e7bd 0c3d 80bd
00000120: cb05 913e 5077 fdbd 80b8 ea3e ff0c 7fbe
00000130: 19f8 703d 51e4 7b3e 16c2 67bc 35ac 003f
00000140: d943 ff3d ccea ebbd 9f4b d8bc c64f 43bc
00000150: 33fb 8cbd 1bfa 0c3f c8f2 3d3e 3a52 b33e
00000160: 7de6 02be 8ba3 c63e 7940 76be 19ab d63e
00000170: 5557 59bc 8155 52be 651f 903b 4c0e 863e
00000180: 5878 c3bc 8299 7cbe 4097 e0be 3a31 b4be
00000190: 3563 68bd a516 16bd 76aa 8cbb 4983 b8bd
000001a0: 1d28 473e 1870 2dbe c33e 48be 8283 6a3e
000001b0: b1d7 02bf e3ea e53d b775 69be 0e61 833e
000001c0: e0b2 54bd 532e 9d3e fa77 873e d855 78be
000001d0: 1e48 cc3e 48b0 81bb d071 b73e 0209 8e3e
000001e0: 2c5d 26bc 5ea0 493e 0914 a2bd 63e1 b6be
000001f0: c01e acbd 7b5b 45be 698a bfbe 9d58 03bd
00000200: b814 14be d73e 46be 9a2e 13bf d01c 923e
00000210: 6c8e 63be f98b f03e 1596 afbd 0755 853e
00000220: d354 a73d 5026 fc3e 3f6e 1dbf 34aa 863e
00000230: 8b2c 1c3d d241 653e 11a5 4c3e 24a7 243d
00000240: 57b3 46bd 518f eebe 6ace 14bf eedb 593e
00000250: d863 90bd 0788 cc3e 08bc c6be f888 68be
00000260: c8b7 c4bb 8ee3 29be 1c82 05bd f4d7 11bf
00000270: 6349 5abc 9fc2 9bbe b04d f83c 3c5d 0bbf
00000280: e43e 32be 30d0 c3bd e9e5 d83e aa7e 4bbe
00000290: 4b63 da3e c051 46be e416 9f3e fe26 e93b
000002a0: aaef df3e 0ed6 f93e 1bd7 433d f7b1 273e
000002b0: 9921 423d 6fda b13e e423 b1be dbcb 7f3e
000002c0: 9049 16bf d872 343e ccc8 9e3e 504c 10be
000002d0: 36c2 5dbd eb85 8bbe 9c59 fc3d 6b15 edbd
000002e0: 0a3e b1bd b2d1 253e 0bb2 9fbe 3e77 a33e
000002f0: 4da4 833c 4d6a dcbd c35f 15bf a451 bdbe
00000300: 2c7a af3e 8086 35bd ae38 aebd dfaf fc3e
00000310: 8fb9 d6be 3125 2fbe d812 2cbe 6faa 253e
00000320: f0a0 493d e945 c2bd d611 b1be b7b4 4e3e
00000330: 58e4 b63e 96a8 8f3d b983 de3d b0e3 97be
00000340: 5b0d 293c b0f1 ae3e cac5 68be bfac 1a3f
00000350: e4fd 7dbe 3d57 a63d ee96 9c3d c950 7e3e
00000360: 096a c0be fafe 6ebe db76 34be 3bc8 533f
00000370: 79d4 febd ede6 e3be 84d4 d6bd 576d 863d
00000380: 5880 10be ec4f c53e 8909 853e 9715 ffbd
00000390: e785 3abe 7719 87be 36de 473e d7f6 52be
000003a0: 0bd6 ba3e 90d4 043f 7bb7 29be 983c 693d
000003b0: c154 ccbe ad24 91be 9fea 1bbf aab8 83be
000003c0: 0c73 ab3e 361b 90bd 4125 3f3e 0348 01be
000003d0: 1103 f23e 82b0 523d b7d7 efbd 8010 233f
000003e0: a818 adbd 6e71 a1be 9844 353d f948 24bc
000003f0: 8cee 6f3e e205 85be 80c3 543e c8ac 413e
0.032463405 -0.5470854 0.11106187 -0.021373648 -0.103135556 0.12989336 0.3315421 0.18714976
-0.24344891 -0.3603439 -0.20149012 0.010670322 -0.5442336 -0.11108766 -0.32169282 -0.12830152
-0.17337675 -0.11252 0.068722345 0.24648584 0.37676343 0.3583355 -0.10444414 0.11342571
-0.07801345 0.01362533 -0.14748017 -0.18346614 -0.430994 0.08434575 -0.29000396 -0.064924866
-0.08123101 0.07736923 0.16368467 0.099707134 -0.11548444 -0.06873562 0.18309174 0.38915607
-0.30218646 0.37251836 0.4055645 0.14062311 0.05613461 -0.027821029 0.42668217 0.46296543
0.41884732 0.29691967 0.21496788 -0.21852565 0.08988548 0.1622472 -0.29836744 0.16057268
0.17303687 0.2165155 -0.2372417 -0.194622 -0.26089874 -0.39705828 0.42121068 -0.16598785
0.04730645 -0.09310893 0.45717868 0.312089 0.086451545 -0.528214 -0.11325427 -0.06261644
0.28324732 -0.12376273 0.45843887 -0.24907301 0.058830354 0.24598815 -0.014145395 0.5026277
0.12464113 -0.11519393 -0.026403246 -0.011920875 -0.0688385 0.5506913 0.18549645 0.3502367
-0.12783237 0.38796648 -0.24048032 0.41927412 -0.0132654505 -0.2054043 0.004398274 0.26182783
-0.023861095 -0.24667934 -0.43865395 -0.35193807 -0.056735236 -0.03664269 -0.0042927815 -0.09009416
0.19448896 -0.16937292 -0.19555192 0.22901729 -0.5111037 0.11226442 -0.22798811 0.25659984
-0.0519284 0.30699405 0.26458722 -0.24251497 0.3989877 -0.003957782 0.3582902 0.27741247
-0.01015405 0.19690081 -0.07913978 -0.3571883 -0.084043026 -0.19273178 -0.37410286 -0.03206693
-0.14461029 -0.19359909 -0.57492983 0.28537607 -0.22222298 0.4698179 -0.08573548 0.26041433
0.08170476 0.4924798 -0.6149635 0.2630173 0.038128417 0.2238839 0.19984843 0.04019846
-0.048510876 -0.46593717 -0.5812746 0.21275303 -0.07050294 0.3994753 -0.3881533 -0.227085
-0.0060033537 -0.16590711 -0.032594785 -0.56970143 -0.013323161 -0.30421922 0.030310482 -0.5443914
-0.17406803 -0.09561193 0.42362908 -0.19872537 0.4265388 -0.19367123 0.31072152 0.007115244
0.43737537 0.48796123 0.047812562 0.16376482 0.047395322 0.34736964 -0.34597695 0.24980108
-0.58706 0.17621934 0.3101257 -0.14091611 -0.054140292 -0.2725061 0.12321779 -0.11576351
-0.08654411 0.16193274 -0.31190524 0.31926912 0.016069556 -0.10762463 -0.58349246 -0.3697635
0.34272897 -0.044317722 -0.085069045 0.4935293 -0.41938445 -0.17104031 -0.16804063 0.16178297
0.049225748 -0.094859906 -0.3458392 0.20186125 0.35721087 0.07014577 0.10864968 -0.296659
0.010318126 0.34168768 -0.227317 0.6041984 -0.24803883 0.08122108 0.07645975 0.24835505
-0.37580898 -0.23339453 -0.17623465 0.827274 -0.1244287 -0.4451212 -0.10489753 0.06563824
-0.1411146 0.38537538 0.25983837 -0.1245529 -0.18215142 -0.26386616 0.1951836 -0.20601974
0.36491427 0.51886845 -0.16573898 0.056942552 -0.39908412 -0.28348294 -0.6090488 -0.25726825
0.3348621 -0.0703644 0.18666555 -0.12625127 0.47267964 0.051437862 -0.11711066 0.6369705
-0.084519684 -0.31531852 0.04425487 -0.010027164 0.23430842 -0.2598105 0.20777702 0.18913567

d2_b f4 [30]
00000000: e641 fcbd f991 2a3d abca 963c 4c45 81bd
00000010: 4b05 193e ac41 08bd ad07 583d 6d3a 33bd
00000020: 861d a0bc e533 2f3c e98a 5dbd b46a ab3d
00000030: af79 183d 788b 40bd 773f 57bc 4dd0 1f3d
00000040: 151c 853c 5c9b 94bc 261b 4ebd f15f 90bc
00000050: 7669 0b3e 94dd ad3d 9f62 213d 4f35 94bd
00000060: 9332 1f3d 449c 11bd 1cf2 d5bc ed7d 4e3d
00000070: 6980 943d b351 d9bb
-0.12317257 0.041643117 0.018407186 -0.063120455 0.14943425 -0.033265755 0.052741695 -0.04375689
-0.019545328 0.010693525 -0.054087553 0.083699614 0.03722542 -0.047008008 -0.01313769 0.03901701
0.016248742 -0.018140487 -0.05031886 -0.017623873 0.13614449 0.08489528 0.039400693 -0.0723673
0.03886659 -0.035549417 -0.026116423 0.05041306 0.07251055 -0.0066320538

out_W f4 [30, 10]
00000000: 28ab 383e 70f6 3b3d 24d3 d1bd df6c 28be
00000010: c3eb 5ebe a16a a7be 5a9c 69be f5f0 0e3d
00000020: 849f 5b3e 2198 ad3e ebc1 cb3e bea6 edbb
00000030: d217 1f3e ea31 fcbe 0b73 14be d39a 38be
00000040: 1d98 8d3e 85ca fc3d 0da2 d73d dab8 17be
00000050: d3a2 e8be 57b6 94be d4bb 043e 6f0d b43d
00000060: d20f ce3c fe00 5fbd dc29 aa3e add1 b13e
00000070: 7ae5 0c3e 1cca 823c c085 933d 0c60 15be
00000080: e76a b4be 3a2d dc3d 8d0a 53bd e62e 63be
00000090: 05c1 a3bd 8267 6f3e 5578 853e 46ba e8bd
000000a0: f162 cfbb c43b 04be bfaf debc 01fb 14bd
000000b0: 08bf 0bbc c0a5 483e 33ce 95be a419 a73c
000000c0: 59a4 efbe c18d dd3d 5032 ed3d d2b7 57be
000000d0: e808 6b3e 9b11 abbe 9f05 0abe 2af4 b1be
000000e0: e570 bbbd b751 413e 2cfe 8dbe 1bd5 b0be
000000f0: 90ca 01bf d24d 58be 867c b8bd b0b9 003e
00000100: 661a 663d 5409 afbc a8b1 d3be 446c 693d
00000110: a775 bbbe dae3 d93d 7bf4 0b3d 7791 813e
00000120: 153f f3bd 2c0b 873e 170b 6bbc 32c5 98bd
00000130: 2044 9f3d 729d b33e fba3 903e e12d 95bd
00000140: 38eb 813e db1c bfbc 86c0 0d3d 11fa 893e
00000150: d5d3 3bbd f415 423e 72ee f43d b281 8e3e
00000160: 08b2 a8be de61 243e bead dc3e 4806 a93e
00000170: 50df a4be 96be 813e 477c be3e fabd d83e
00000180: 1b24 42be db19 9d3e 2a7b f03d 8962 a53e
00000190: b740 903d 7ad0 30be fdbf b93e 8308 b83e
000001a0: e32e 36bd 11c9 07bc 1f83 2c3d acb8 743e
000001b0: 6494 29be e907 ee3d 104e 693c 3ef7 a4be
000001c0: 8a9f 873e 20de 8cbe 5d65 7abe 6af5 de3c
000001d0: 7400 cd3e 9c91 cebe 35b6 0f3e 5485 31be
000001e0: 5258 47be 30ce 89bd 7eef b83e 7f94 5b3e
000001f0: 239e 05be a2e4 89be 9d1c 423e 16a4 92be
00000200: 6256 a2be f532 36be b2b4 053e 9e96 0c3e
00000210: ef8c 5e3e 82ec c43d 1996 3fbe 6ab3 9abd
00000220: 3bc2 523e 5860 193d 91f2 9e3e 0fdd ddbd
00000230: 856b 543d d5e4 ac3d fc60 863e 4885 86be
00000240: 9371 a8bd 6ea6 9e3e 0298 b7be 3f43 753e
00000250: 9325 9cbd 2dae 7a3e 2dee febe 84e0 3cbe
00000260: 1203 d3be 1ef6 d03d 8a4f 12be 569a aa3d
00000270: 4e14 763e 040c bfbe ca01 223e b18b b9be
00000280: b261 713d 323c 1dbe ba0e 38bd 86a7 c93e
00000290: f2cd 923e a293 95bb c0df 7abd ca6f 8c3d
000002a0: 06dc 453c 6f56 2f3e a2a8 1ebd 6dee cb3e
000002b0: d825 fbbd 7ead 24be 3030 873e cc3d a23e
000002c0: e602 dd3d a64c 9a3e 18ef a43e 7878 083e
000002d0: 38c2 9c3e 9176 27be 8852 7ebe 1916 253e
000002e0: 707b 443e 0517 71be 202d 82bd 4e32 8d3e
000002f0: d533 fa3b 3bc2 793d 447b 82be 51ad 843a
00000300: cf1b 143c eb5b 75be 4c1e b63e 4af2 983b
00000310: a5c8 dabe 3143 0d3e 8d4e af3e e62e 833d
00000320: 41c1 40be 7d5b 70be b57a 21bd 2d8d bf3d
00000330: 8dcf 973e 0cba a73e c9cf 243e 0249 e43c
00000340: e23d 50be 39c5 8ebe a2bd 79bd 48a5 81be
00000350: 8c77 06bf f1b8 e0bd b4fc c7bd 5b46 173e
00000360: 2dbe 9f3e 0a13 2d3e 78ee c43e 6bdd 753c
00000370: cd0d 643e 6f6e c0be 7539 d3be 3153 b4be
00000380: c950 8d3e e133 223d 7721 78bd a4e4 bdbe
00000390: cc48 9cbc 3025 e5bd 1ec7 353d 49f1 e93d
000003a0: d50b 2fbe 451b e63d 8e97 aabe 4cb8 0bbe
000003b0: 4ee3 b1be e582 9d3b 75f3 20bd 226d 0c3f
000003c0: cb62 b4be c7ec 083e 6d9c b13d ede0 f3ba
000003d0: d0da 903e 6ce1 ab3e 3837 023e f481 f23e
000003e0: ab92 d2bd a32d c43b faac 74bc 773d aabd
000003f0: 7c26 df3e c721 783e 653a 023e 980f 7d3d
0.18034041 0.045889318 -0.1024535 -0.16447781 -0.21769623 -0.3269854 -0.2281355 0.034897763
0.21447569 0.33905128 0.39796385 -0.0072525432 0.1553643 -0.4925683 -0.1449701 -0.18027811
0.27655116 0.12343315 0.105289556 -0.14816609 -0.45436725 -0.29045364 0.12962276 0.08791625
0.025154028 -0.054444306 0.3323506 0.34730282 0.13759413 0.015965514 0.07203245 -0.1458742
-0.3523781 0.10750814 -0.051523734 -0.22185859 -0.079958 0.23379329 0.2606837 -0.11363654
-0.0063289334 -0.12913424 -0.027183412 -0.03637219 -0.008529432 0.19594479 -0.2925888 0.020397969
-0.46805075 0.10818053 0.11581862 -0.21066216 0.22952616 -0.3341187 -0.13478707 -0.34756595
-0.09152392 0.18878828 -0.2773298 -0.34537587 -0.5069971 -0.21123436 -0.09008126 0.12570834
0.05617752 -0.021366753 -0.41346478 0.056988016 -0.366132 0.10639162 0.0341687 0.25306293
-0.11877266 0.2637571 -0.014345906 -0.07459487 0.07776666 0.3508106 0.28250107 -0.07284141
0.2537477 -0.023329189 0.034607433 0.26948598 -0.045856316 0.18953687 0.11959542 0.27833325
-0.32948327 0.16052958 0.43101305 0.33012605 -0.32201624 0.25340718 0.3720419 0.4233244
-0.18959086 0.3068379 0.11742242 0.3230174 0.070435934 -0.17267027 0.36279288 0.35943994
-0.04447831 -0.008287684 0.042117234 0.23898572 -0.16560513 0.116226025 0.014239803 -0.3221988
0.26488906 -0.27513218 -0.2445273 0.027216632 0.40039408 -0.40345466 0.1403435 -0.17336017
-0.19467285 -0.0672878 0.36120218 0.21443366 -0.13048606 -0.26932245 0.18956228 -0.28640813
-0.3170653 -0.17792876 0.13057211 0.13729331 0.2173345 0.09615423 -0.18709601 -0.07553752
0.20581906 0.037445396 0.31044438 -0.10833179 0.05186035 0.08442084 0.26245868 -0.2627356
-0.082247876 0.3098635 -0.3585816 0.23951434 -0.07624354 0.24480505 -0.4979109 -0.18445021
-0.4121328 0.10203193 -0.14288154 0.083302185 0.24031183 -0.37313855 0.15820995 -0.3623939
0.05893106 -0.15354994 -0.04493592 0.39385623 0.2867275 -0.0045647183 -0.06124854 0.068572596
0.012076383 0.17122816 -0.03873504 0.39830342 -0.122630775 -0.16081807 0.26403952 0.31687772
0.107915685 0.30136603 0.32213664 0.13327205 0.30616927 -0.16353823 -0.2483617 0.16121711
0.19187713 -0.23543938 -0.06356263 0.27577442 0.0076355734 0.06097625 -0.2548467 0.0010122453
0.009039833 -0.23960845 0.3556999 0.004667555 -0.42731205 0.13795163 0.34239617 0.064054295
-0.1882372 -0.234724 -0.039423663 0.09353099 0.29650536 0.3275913 0.16094889 0.027866844
-0.20336106 -0.27884844 -0.060971864 -0.25321412 -0.52526164 -0.10972775 -0.09764996 0.14772932
0.3119978 0.16901794 0.38463187 0.015006403 0.2227089 -0.37584254 -0.41254774 -0.3521972
0.27600697 0.039600257 -0.06057879 -0.370885 -0.019077681 -0.111887336 0.044379346 0.114229746
-0.17094357 0.1123567 -0.33318752 -0.13644522 -0.34743732 0.0048068636 -0.03929468 0.54854023
-0.35231623 0.13371573 0.08672414 -0.0018606462 0.2829194 0.3357042 0.12716377 0.4736477
-0.10281881 0.0059868856 -0.014933819 -0.08312505 0.4358405 0.24231635 0.12717588 0.06178245

out_b f4 [10]
00000000: a1ba 96bd a4ea b5bc 85e7 e5bc 9ff5 673d
00000010: 7a49 c13c 879e 4e3c cd1d 38bd b0e6 32bd
00000020: 9d14 13bd f3b3 87bd
-0.073598154 -0.022206612 -0.028064499 0.056630727 0.023594607 0.012611038 -0.044950295 -0.043677032
-0.03590833 -0.066261195
