ae_weights.npz (npz, 15311 bytes, 12 tensors)

e1_W f4 [11, 30]
0.034341764 0.00984047 0.32279223 0.17883773 -0.1495559 0.13609897 0.52649397 0.410541
-0.24720481 -0.6188765 -0.09321454 0.03278381 -1.0207151 -0.27584067 -0.43204343 -0.28828898
-0.06970573 -0.10530893 0.21294242 0.4783006 -0.056543216 0.6211901 -0.29191235 0.15650645
0.4196667 0.059661735 -0.5361284 -0.41917506 -0.22367541 0.028177265 -0.40012482 -0.10553826
-0.043629754 0.3049032 0.13095817 0.1335653 -0.2230314 -0.09533313 0.3871264 0.50850326
-0.43636724 0.6084082 0.5136579 0.22653718 0.061422054 -0.074876085 0.6701804 0.7858719
0.8108214 0.5342778 0.1524681 -0.49013346 -0.0955177 0.31113738 -0.5126811 0.122888066
-0.14562097 0.26924214 -0.49632904 -0.34227073 -0.19680765 -0.52057946 0.7109519 -0.15024732
0.14101587 -0.12813383 0.69778955 0.541493 0.31727478 -0.98885655 0.05365034 0.23096168
0.3869746 -0.26106223 0.7422275 -0.5089595 -0.1688517 0.3714732 0.06267811 0.7774889
0.07970708 -0.25478393 -0.20476685 -0.45692885 -0.5098302 0.18539341 -0.008411723 0.5242579
-0.3162274 0.735367 -0.16596514 0.718685 -0.20294692 -0.30550203 0.10215013 0.4221194
0.056438353 -0.23956525 -0.5218457 -0.55353093 0.19843625 0.30631322 -0.07638886 -0.43451247
0.41870344 -0.47624946 -0.2051612 0.2718507 -0.9188909 0.13649477 -0.24702437 0.048801683
-0.052353445 0.05663222 0.3240632 -0.40862647 0.39071035 0.2828129 0.41654614 0.51488614
0.28098327 0.4436713 0.025211079 -0.59667873 -0.055098187 -0.34565002 -0.6432674 0.13159661
-0.1868829 -0.30494675 -0.47316772 -0.030624555 0.21049897 0.5836877 0.08107452 0.44714662
0.5193939 0.5278307 -0.96827304 0.51445705 0.14937322 0.18485464 0.1707943 0.0751946
0.15100476 -0.19997026 -0.7850691 -0.07067763 -0.24578482 0.49924803 -0.17328085 0.13498718
-0.32448384 -0.21800885 0.012403762 -0.6508569 0.088414036 -0.032412067 -0.4460554 -0.8825742
0.18035866 -0.26486674 -0.17297848 -0.11374415 0.87407446 -0.051156975 -0.003230413 -0.5696294
0.74316007 0.43268934 0.46243623 0.030525917 0.41068402 0.08091164 0.26581922 -0.078146145
-0.5221791 0.41671604 -0.69403857 -0.07745751 -0.10216111 -0.37570766 0.29586908 -0.05246243
-0.19308034 0.20410655 -0.2101579 0.6332255 0.21059199 -0.13819659 -0.84300447 -0.67019755
0.47794357 -0.114952646 -0.028028475 0.7557035 -0.5713693 -0.26275185 -0.1551954 0.34310114
-0.27070454 -0.24046287 -0.67619294 0.2059592 0.33394024 -0.18763526 0.061248 -0.5705357
-0.13256013 0.4902911 0.053421702 1.0089319 -0.33736488 0.2638714 -0.12597236 0.22368687
-0.0022309658 -0.16946045 -0.28997794 1.2718836 -0.048217934 -0.9187821 -0.27215883 0.15008795
-0.14544271 0.66630197 0.27360612 -0.12604694 -0.14783959 -0.34493878 -0.28164563 -0.5872812
0.44706357 0.55220425 -0.55398965 -0.48152265 -0.721316 -0.42891815 -1.2188615 -0.6322124
0.5435717 -0.23380198 0.34770787 -0.14930771 0.73064566 0.067355916 -0.0842844 1.0785832
-0.064366624 -0.5815737 0.0735185 -0.012425665 0.44152287 -0.49391738 0.30169654 0.35360575
00000000: f3a9 0c3d ec39 213c 0645 a53e 3d21 373e
00000010: 2f25 19be 875d 0b3e 4fc8 063f 6e32 d23e
00000020: 4223 7dbe b16e 1ebf 44e7 bebd 5148 063d
00000030: cba6 82bf fd3a 8dbe cc34 ddbe 9d9a 93be
00000040: e1c1 8ebd 35ac d7bd 940d 5a3e d1e3 f43e
00000050: dc99 67bd 5006 1f3f 8975 95be 3a43 203e
00000060: 8ede d63e dd5f 743d b63f 09bf 1d9e d6be
00000070: 2b0b 65be 02d4 e63c 29dd ccbe 7124 d8bd
00000080: 1db5 32bd 461c 9c3e e619 063e 58c5 083e
00000090: 5862 64be 043e c3bd 6e35 c63e 452d 023f
000000a0: 876b dfbe a4c0 1b3f 167f 033f 5df9 673e
000000b0: b195 7b3d a258 99bd f190 2b3f e72e 493f
000000c0: fe91 4f3f 6ec6 083f 9920 1c3e c6f2 fabe
000000d0: c99e c3bd 664d 9f3e 123f 03bf bdac fb3d
000000e0: aa1d 15be 1bda 893e d71e febe 1c3e afbe
000000f0: f287 49be b244 05bf f200 363f 6fda 19be
00000100: 7766 103e 8435 03be 56a2 323f 499f 0a3f
00000110: d771 a23e b425 7dbf 75c0 5b3d 3881 6c3e
00000120: 8921 c63e f3a9 85be 9f02 3e3f 2b4b 02bf
00000130: 76e7 2cbe bc31 be3e 625d 803d 8309 473f
00000140: 773d a33d 0a73 82be 67ae 51be 94f2 e9be
00000150: 3b84 02bf c5d7 3d3e 53d1 09bc c435 063f
00000160: 8fe8 a1be 0341 3c3f c4f2 29be bdfb 373f
00000170: 51d1 4fbe c36a 9cbe 1634 d13d 0920 d83e
00000180: e72b 673d 9850 75be ae97 05bf 34b4 0dbf
00000190: df32 4b3e 16d5 9c3e c371 9cbd 6b78 debe
000001a0: 4c60 d63e f8d6 f3be c715 52be 0430 8b3e
000001b0: 6f3c 6bbf 49c5 0b3e f5f3 7cbe 46e4 473d
000001c0: 9170 56bd 30f7 673d 9deb a53e 7d37 d1be
000001d0: 300b c83e dacc 903e 8945 d53e 94cf 033f
000001e0: 0add 8f3e e228 e33e 7787 ce3c f0bf 18bf
000001f0: a3ae 61bd 0af9 b0be 2cad 24bf 43c1 063e
00000200: 3b5e 3fbe fb21 9cbe 0a43 f2be 59e0 fabc
00000210: 0b8d 573e 8f6c 153f 660a a63d 67f0 e43e
00000220: 00f7 043f ea1f 073f bee0 77bf 75b3 033f
00000230: 4bf5 183e 894a 3d3e b3e4 2e3e a0ff 993d
00000240: fea0 1a3e 01c5 4cbe 4afa 48bf 6fbf 90bd
00000250: 04af 7bbe 709d ff3e 8970 31be 143a 0a3e
00000260: bf22 a6be b63d 5fbe 2639 4b3c 8f9e 26bf
00000270: 6b12 b53d 84c2 04bd 6061 e4be 62f0 61bf
00000280: f1af 383e 9d9c 87be 4521 31be b1f2 e8bd
00000290: 58c3 5f3f fa89 51bd 56b5 53bb 3bd3 11bf
000002a0: bd3f 3e3f 7589 dd3e 71c4 ec3e 7d11 fa3c
000002b0: 2d45 d23e 00b5 a53d 7519 883e 160b a0bd
000002c0: 88ad 05bf ce5b d53e 83ac 31bf 0ba2 9ebd
000002d0: d839 d1bd c15c c0be 277c 973e d8e2 56bd
000002e0: dab6 45be 4f01 513e a233 57be 111b 223f
000002f0: 6da5 573e 6883 0dbe 24cf 57bf 1192 2bbf
00000300: 05b5 f43e 4b6c ebbd f99b e5bc c975 413f
00000310: 4245 12bf 6987 86be 8beb 1ebe f4aa af3e
00000320: c999 8abe e63b 76be fb1a 2dbf f8e6 523e
00000330: 37fa aa3e 7523 40be 2fdf 7a3d a10e 12bf
00000340: d8bd 07be 6f07 fb3e b7d0 5a3d ae24 813f
00000350: 17bb acbe 271a 873e e6fe 00be 2c0e 653e
00000360: 6535 12bb 0a87 2dbe fd77 94be 15cd a23f
00000370: 2b80 45bd 4e35 6bbf 6758 8bbe a8b0 193e
00000380: efee 14be c492 2a3f 1a16 8c3e 7312 01be
00000390: 4363 17be d19b b0be db33 90be 1058 16bf
000003a0: 84e5 e43e 425d 0d3f 44d2 0dbf 238a f6be
000003b0: 2aa8 38bf 299b dbbe a703 9cbf acd8 21bf
000003c0: 8427 0b3f c969 6fbe c406 b23e 1fe4 18be
000003d0: 980b 3b3f e6f1 893d 4d9d acbd 040f 8a3f
000003e0: a6d2 83bd 04e2 14bf de90 963d 0495 4bbc
000003f0: 490f e23e bde2 fcbe f877 9a3e d00b b53e

e1_b f4 [30]
0.023245715 0.046157654 0.037552312 -0.048292976 0.007019119 -0.014991469 0.014300417 0.034823336
-0.06713527 -0.056124866 -0.05539212 -0.037799604 0.033639103 -0.00811765 0.072066665 0.038603146
-0.01790777 0.052599028 -0.04280439 0.08338576 -0.031424373 -0.056168288 -0.01811582 0.029127903
-0.015635978 -0.022657853 -0.03411482 -0.028026277 -0.053513303 0.029789867
00000000: cc6d be3c cf0f 3d3d 74d0 193d dbce 45bd
00000010: a300 e63b c79e 75bc 4c4c 6a3c eaa2 0e3d
00000020: 377e 89bd 30e3 65bd d9e2 62bd c2d3 1abd
00000030: 28c9 093d e4ff 04bc b097 933d 551e 1e3d
00000040: 51b3 92bc 1472 573d a853 2fbd 27c6 aa3d
00000050: d8b6 00bd b810 66bd a167 94bc a49d ee3c
00000060: 0617 80bc f69c b9bc fbbb 0bbd 5d97 e5bc
00000070: c430 5bbd e109 f43c

e2_W f4 [30, 30]
-0.097499624 -0.006563523 0.16697757 0.021095818 -0.14385708 0.07745088 0.2789348 0.23801066
-0.19017097 -0.35434785 -0.12591489 0.01918782 -0.29382044 -0.075872086 -0.31146365 -0.1050488
-0.123598725 0.0016080008 0.040682565 0.27189326 0.23314302 0.34907869 -0.18267797 0.10137857
0.22300214 0.017707862 -0.13965411 0.15863241 0.19552906 0.01910424 -0.33045664 0.008290212
-0.027462436 0.13366185 0.037804022 0.123228796 -0.16627309 -0.062249474 0.19157793 0.36519155
-0.2501127 0.3120277 0.30203587 0.20125884 0.11539545 -0.17208578 0.37728477 0.61000514
0.4457582 0.35778153 0.104325384 -0.34207362 -0.0123951 0.22022547 -0.34268773 0.099481635
0.10306953 0.34990296 -0.06778037 -0.19909564 -0.1168116 -0.35032716 0.42585668 -0.13828835
0.18886475 -0.07912495 0.25114053 0.36041865 0.14891244 -0.7417155 -0.007893001 -0.0006197838
0.19799928 -0.15256944 0.4687172 -0.27761996 -0.17260405 0.21347731 0.004189191 0.49171007
0.044124696 -0.19955908 -0.10855671 -0.2976268 -0.346442 -0.14615932 0.19366747 -0.049897905
-0.05171398 0.44243354 -0.06882743 0.2668805 -0.12790854 -0.19010039 0.037257552 0.26844674
0.084899105 -0.048579887 -0.3725081 -0.32750788 0.17664002 0.37083083 -0.04849955 0.13617566
0.051057868 -0.34674793 -0.18239807 0.06333344 -0.16033638 0.009470198 -0.1927692 0.051720615
-0.01954605 0.24132915 0.16065902 -0.21181333 0.29061398 0.12244422 0.22114335 0.17858452
0.13517709 0.1974749 -0.03154586 -0.37427926 -0.10704159 -0.23840003 -0.36224598 0.108538784
-0.16287501 -0.32620808 -0.4604944 -0.088788375 0.053200517 0.31647652 -0.13717689 0.20888017
0.3489112 0.043829117 -0.4600426 0.22274688 0.11766697 0.08312628 0.08417602 0.029501297
0.060063887 -0.09840775 -0.47882703 -0.38132754 0.048993934 0.43780613 -0.06796803 0.029643632
-0.22613578 -0.13382618 0.009636785 -0.3929587 0.07607627 -0.018997936 -0.31506735 -0.62367177
0.12532818 -0.058628555 -0.1294446 -0.051425878 0.47883847 -0.0035986654 0.025387805 -0.37130967
0.41553676 0.2268796 0.2754814 0.020967295 0.2259507 0.09142332 0.14909102 -0.050281
-0.3913845 0.25398213 -0.4962269 -0.06692363 -0.04543802 -0.30047444 0.10423551 -0.05854679
0.07496244 0.07605046 -0.27607962 0.41920924 0.072381176 -0.12375764 -0.41622728 -0.2182922
0.21034004 0.024773763 0.0011751082 0.68738014 -0.3149486 -0.023137828 -0.13716768 0.14925964
-0.12447932 -0.18501703 -0.42584056 0.075056344 0.18959448 0.826711 -0.053212825 -0.10601767
-0.28877372 0.21823502 0.0250163 0.61223584 -0.19689418 0.1438642 -0.013753145 0.17364214
-0.01650249 -0.15114799 -0.23516661 0.6792945 0.008824943 -0.5530169 -0.23837984 0.19274983
-0.076878585 0.24057138 0.2608012 -0.050273344 -0.07790614 -0.2551696 -0.89099187 -0.41177773
0.29965654 0.54462373 -0.33498478 -0.34243572 -0.46008024 -0.2035197 -0.6810384 -0.27825946
0.3625302 -0.14787982 0.23639885 -0.12625127 0.44505614 0.1081554 -0.037000228 0.6385636
-0.10619796 -0.3231316 0.06789797 0.03633935 0.2696897 -0.1000849 0.18542273 0.09513472
00000000: e2ad c7bd d212 d7bb 2bfc 2a3e 23d1 ac3c
00000010: 454f 13be 919e 9e3d 8bd0 8e3e 11b9 733e
00000020: 2ebc 42be 156d b5be d5ef 00be c62f 9d3c
00000030: a26f 96be d362 9bbd 2a78 9fbe d323 d7bd
00000040: 5421 fdbd 8ec3 d23a c3a2 263d 9835 8b3e
00000050: 0bbd 6e3e 71ba b23e ef0f 3bbe 919f cf3d
00000060: ac5a 643e 1410 913c 7d01 0fbe 8970 223e
00000070: c538 483e 7f80 9c3c 9d31 a9be abd3 073c
00000080: e7f8 e0bc a7de 083e 64d8 1a3d 615f fc3d
00000090: 7e43 2abe 4ef9 7ebd 012d 443e 63fa ba3e
000000a0: c60e 80be 18c2 9f3e 72a4 9a3e cc16 4e3e
000000b0: 7354 ec3d 4137 30be 782b c13e 4c29 1c3f
000000c0: 6b3a e43e 242f b73e 8ca8 d53d 4624 afbe
000000d0: d114 4bbc c982 613e c474 afbe 07bd cb3d
000000e0: 1e16 d33d 7b26 b33e 6fd0 8abd badf 4bbe
000000f0: ec3a efbd 155e b3be e309 da3e 769b 0dbe
00000100: c365 413e 430c a2bd 7e95 803e cb88 b83e
00000110: 817c 183e 11e1 3dbf a551 01bc fd78 22ba
00000120: 53c0 4a3e 2a3b 1cbe b3fb ef3e 3424 8ebe
00000130: 1ebf 30be cc99 5a3e 7b45 893b 6cc1 fb3e
00000140: 19bc 343d 3759 4cbe fb52 debd 8a62 98be
00000150: d960 b1be caaa 15be c450 463e bf61 4cbd
00000160: 0ad2 53bd a686 e23e 65f5 8cbd 90a4 883e
00000170: 75fa 02be ada9 42be 609b 183d da71 893e
00000180: 95df ad3d b4fb 46bd 62b9 bebe 1daf a7be
00000190: 1fe1 343e 8add bd3e 77a7 46bd a271 0b3e
000001a0: 0e22 513d f288 b1be 8fc6 3abe f6b4 813d
000001b0: 382f 24be e428 1b3c 4a65 45be ffd8 533d
000001c0: 0a1f a0bc fd1e 773e cc83 243e 98e5 58be
000001d0: 5bcb 943e 09c4 fa3d 6773 623e dcde 363e
000001e0: dd6b 0a3e dc36 4a3e 3b36 01bd 88a1 bfbe
000001f0: 9f38 dbbd 231f 74be 4e78 b9be 9549 de3d
00000200: b5c8 26be bf04 a7be ecc5 ebbe aed6 b5bd
00000210: c9e8 593d 3609 a23e 1978 0cbe afe4 553e
00000220: 7da4 b23e 2986 333d b48a ebbe c217 643e
00000230: 61fb f03d 1c3e aa3d 7a64 ac3d b4ac f13c
00000240: 8d05 763d 018a c9bd d128 f5be 5d3d c3be
00000250: ddad 483d 2028 e03e d332 8bbd 34d7 f23c
00000260: 2390 67be bb09 09be 9be3 1d3c e231 c9be
00000270: e0cd 9b3d 8fa1 9bbc 8250 a1be f4a8 1fbf
00000280: 0856 003e 7f24 70bd 208d 04be f1a3 52bd
00000290: 512a f53e 96d7 6bbb 16fa cf3c 4d1c bebe
000002a0: 3cc1 d43e 2053 683e e60b 8d3e 9bc3 ab3c
000002b0: 9f5f 673e 263c bb3d 51ab 183e 73f3 4dbd
000002c0: 8d63 c8be f209 823e 7411 febe 420f 89bd
000002d0: 381d 3abd c9d7 99be 6d79 d53d c2ce 6fbd
000002e0: e885 993d 58c0 9b3d 4f5a 8dbe 98a2 d63e
000002f0: 953c 943d a574 fdbd be1b d5be fe87 5fbe
00000300: 6163 573e 59f2 ca3c 1706 9a3a 25f8 2f3f
00000310: f140 a1be 8b8b bdbc af75 0cbe 85d7 183e
00000320: 04ef febd 1b75 3dbe c607 dabe 24b7 993d
00000330: 0e25 423e 55a3 533f b1f5 59bd cb1f d9bd
00000340: 26da 93be 0079 5f3e fcee cc3c 7dbb 1c3f
00000350: a19e 49be 2351 133e df54 61bc 3fcf 313e
00000360: 3b30 87bc 8ac6 1abe 84cf 70be 3fe6 2d3f
00000370: 7e96 103c 8492 0dbf d819 74be 3660 453e
00000380: 8572 9dbd 5858 763e bc87 853e 6ceb 4dbd
00000390: 418d 9fbd 97a5 82be 0b18 64bf 88d4 d2be
000003a0: 956c 993e 766c 0b3f 2083 abbe bc53 afbe
000003b0: a38f ebbe 7867 50be 8858 2ebf 0678 8ebe
000003c0: 8f9d b93e cf6d 17be 8a12 723e 0348 01be
000003d0: 66de e33e 9480 dd3d 8d8d 17bd e778 233f
000003e0: 517e d9bd 8171 a5be 170e 8b3d 92d8 143d
000003f0: c514 8a3e 50f9 ccbd 75df 3d3e fed5 c23d

e2_b f4 [30]
-0.016269125 0.010069215 -0.008072644 -0.0075483248 0.027907113 0.022207942 -0.028289469 -0.004207894
-0.02095306 -0.028561587 0.016126232 0.035663307 0.004714253 -0.00038642154 0.013567805 -0.012489126
-0.013177274 0.036174398 0.0011782766 -0.0071941568 0.033850957 -0.017731829 -0.010794911 -0.016288353
-0.017205454 -0.021948442 -0.027989509 -0.004244425 0.06349205 0.012881299
00000000: d446 85bc 59f9 243c 1f43 04bc f057 f7bb
00000010: 759d e43c 6eed b53c 51bf e7bc 60e2 89bb
00000020: c0a5 abbc fdf9 e9bc 291b 843c b013 123d
00000030: 057a 9a3b 9f98 cab9 804b 5e3c 319f 4cbc
00000040: 7ee5 57bc 9b2b 143d 6770 9a3a f6bc ebbb
00000050: 4da7 0a3d 5742 91bc 23dd 30bc 276f 85bc
00000060: 74f2 8cbc 38cd b3bc 414a e5bc d114 8bbb
00000070: 1f08 823d 150c 533c

e3_W f4 [30, 13]
0.0036783717 -0.11379696 0.14745235 0.06981225 -0.19048756 0.057696782 0.32340518 0.27478397
-0.16817367 -0.31351447 -0.18171296 -0.025604988 -0.44734406 -0.018416211 -0.2744773 -0.20524076
-0.21355078 -0.09924253 0.041530896 0.26074773 -0.028460704 0.34151626 -0.16410163 0.07174729
0.2471119 0.018172728 -0.16753569 -0.1620981 -0.13263239 0.037497286 -0.20045692 -0.06787541
-0.05463323 0.12807755 0.036860537 0.0863114 -0.18852572 -0.013235035 0.2043031 0.39113113
-0.32323816 0.39089343 0.34261516 0.20197172 0.07357829 -0.08105452 0.37645933 0.500316
0.46518013 0.33880898 0.09193399 -0.3058705 -0.09289615 0.14954859 -0.34660122 0.03134858
0.24127443 0.2524102 -0.23917237 -0.119977325 -0.1083271 -0.30501848 0.37358174 -0.1884221
0.01521571 -0.076144725 0.4610156 0.34404656 0.24015005 -0.61316115 0.097957835 0.15354902
0.24657954 -0.18573824 0.46566096 -0.3590893 -0.14258105 0.23478524 -0.027483558 0.52553195
0.040502835 -0.14194794 0.13796237 -0.04681829 -0.39259967 0.09841725 0.1421427 0.3315994
-0.21521549 0.29946432 -0.07299683 0.35156226 -0.22304186 -0.20383157 0.077234104 0.31999213
0.030125841 -0.1643178 -0.35267276 -0.3776931 0.1284319 0.2330374 -0.058335636 -0.23455735
0.20885153 -0.33198556 -0.1869436 0.16647163 -0.55913794 0.08064271 -0.1386211 0.04692924
-0.006695667 0.06788279 0.16144541 -0.21086189 0.34514073 0.2558571 0.17377283 0.2847007
0.17808475 -0.031064438 -0.014952555 -0.3475123 0.014281244 -0.2040744 -0.36735034 0.052606255
-0.06596537 -0.24309762 -0.29268712 0.066046014 0.08430468 0.31472245 0.024619583 0.27362293
0.3434317 0.2784531 -0.6229498 0.31282985 0.06472538 0.10134562 0.072461754 0.02536093
0.1687108 -0.11206964 -0.43381515 0.19771981 -0.29103684 0.18865986 -0.103613615 0.0053107827
-0.22503668 -0.1563944 -0.029198203 -0.3533398 0.059952967 -0.046537627 -0.31527823 -0.6337061
0.08007362 -0.0615094 -0.11630127 -0.04161387 0.4824557 0.0029107477 0.0042847116 -0.3523398
0.37389487 0.27122295 0.31453365 -0.004855743 0.20804036 0.06495703 0.15687051 -0.053220283
-0.40028927 0.23673634 -0.5056504 -0.1544471 0.00071036496 -0.25365067 0.13125542 -0.087827645
-0.117833465 0.22209823 -0.006232069 0.4387661 0.072656564 -0.10212587 -0.49173585 -0.34380963
0.19948652 -0.08323116 -0.016918462 0.419469 -0.1837248 -0.16037841 -0.028027704 0.2150374
-0.050282538 -0.10198288 -0.37218478 0.26809967 0.2077778 -0.17788012 0.05588022 -0.094674766
-0.052907743 0.34479272 0.027777214 0.5259781 -0.2343332 0.09440289 -0.0609151 0.13769707
-0.021426208 -0.14490072 -0.22980912 0.76779795 0.013977078 -0.5055326 -0.11186357 0.15797098
-0.15610489 0.36283806 0.26589653 -0.05310358 -0.1407335 -0.28590086 -0.186969 -0.4942525
0.35620886 0.41407186 -0.21469572 -0.10774663 -0.45307815 -0.48910055 -0.13607053 -0.38973624
0.54228073 -0.0031134798 0.21206649 -0.12625127 0.36204094 0.38534388 -0.07428809 0.62456506
-0.08091157 -0.3313368 0.039405257 0.033322945 0.26424477 -0.25331628 0.19091666 0.19590461
00000000: d610 713b 610e e9bd c0fd 163e baf9 8e3d
00000010: 2c0f 43be 7653 6c3d 5d95 a53e 7cb0 8c3e
00000020: b835 2cbe f884 a0be f612 3abe 8dc1 d1bc
00000030: 480a e5be 98dd 96bc 4a88 8cbe a22a 52be
00000040: 0ead 5abe ab3f cbbd 4d1c 2a3d ba80 853e
00000050: 6c26 e9bc 38db ae3e 420a 28be 3ef0 923d
00000060: e70a 7d3e f9de 943c 7a8e 2bbe 0bfd 25be
00000070: c9d0 07be c196 193d 9444 4dbe 4302 8bbd
00000080: 18c7 5fbd c326 033e 13fb 163d 08c4 b03d
00000090: e30c 41be c3d7 58bc d534 513e 5742 c83e
000000a0: 797f a5be 2f23 c83e 416b af3e add1 4e3e
000000b0: 37b0 963d eaff a5bd 47bf c03e b614 003f
000000c0: 172c ee3e 5f78 ad3e e347 bc3d 0f9b 9cbe
000000d0: 5640 bebd 4423 193e b775 b1be 5e67 003d
000000e0: a510 773e e93b 813e 9ae9 74be acb6 f5bd
000000f0: 99da ddbd 622b 9cbe 1b46 bf3e b9f1 40be
00000100: 504b 793c c4f1 9bbd 3d0a ec3e df26 b03e
00000110: e5e9 753e 21f8 1cbf 1e9e c83d f43b 1d3e
00000120: 597f 7c3e 2a32 3ebe 1d6b ee3e 8dda b7be
00000130: c400 12be 8b6b 703e 3325 e1bc 4389 063f
00000140: 4de6 253d cd5a 11be 0246 0d3e 89c4 3fbd
00000150: d302 c9be fc8e c93d db8d 113e 66c7 a93e
00000160: 7361 5cbe 6353 993e 5d7f 95bd f8ff b33e
00000170: 1665 64be 39b9 50be ea2c 9e3d 02d6 a33e
00000180: 78ca f63c ed42 28be 8691 b4be fd60 c1be
00000190: a783 033e 5ba1 6e3e 59f1 6ebd cd2f 70be
000001a0: 2ddd 553e 03fa a9be 256e 3fbe 8a77 2a3e
000001b0: aa23 0fbf 0128 a53d b1f2 0dbe e038 403d
000001c0: 5367 dbbb 2206 8b3d f251 253e 2eec 57be
000001d0: 49b6 b03e b4ff 823e 81f1 313e 4ac4 913e
000001e0: d95b 363e d97a febc 90fb 74bc 22ed b1be
000001f0: e1fb 693c e1f8 50be 5815 bcbe a879 573d
00000200: da18 87bd 95ee 78be 16db 95be 2243 873d
00000210: efa7 ac3d 4d23 a13e 02af c93c 4e18 8c3e
00000220: 48d6 af3e 6891 8e3e a379 1fbf 3c2b a03e
00000230: bd8e 843d 4b8e cf3d d466 943d bac1 cf3c
00000240: 86c2 2c3e c484 e5bd 051d debe 1077 4a3e
00000250: c802 95be 0d30 413e 6033 d4bd 1306 ae3b
00000260: 0470 66be db25 20be 1231 efbc f4e8 b4be
00000270: 3e91 753d 3d9e 3ebd 266c a1be 903a 22bf
00000280: a3fd a33d 48f1 7bbd 5c2f eebd 4e73 2abd
00000290: 6f04 f73e 3ec2 3e3b c466 8c3b e265 b4be
000002a0: 266f bf3e bcdd 8a3e 8e0a a13e ed1c 9fbb
000002b0: 8808 553e 3108 853d aaa2 203e 83fd 59bd
000002c0: b7f2 ccbe 036b 723e 4e72 01bf 6127 1ebe
000002d0: c937 3a3a 80de 81be d267 063e fbde b3bd
000002e0: ac52 f1bd b86d 633e 6236 ccbb f3a5 e03e
000002f0: f7cc 943d 5e27 d1bd cdc4 fbbe d107 b0be
00000300: 3246 4c3e 1975 aabd 9698 8abc a4c4 d63e
00000310: 5b22 3cbe 3d3a 24be 5b9a e5bc c432 5c3e
00000320: 10f5 4dbd 66dc d0bd 018f bebe 5c44 893e
00000330: b4c3 543e 3526 36be a8e2 643d d8e4 c1bd
00000340: cab5 58bd ac88 b03e 0a8d e33c 80a6 063f
00000350: 0bf5 6fbe 4d56 c13d 1d82 79bd 7600 0d3e
00000360: 0486 afbc db60 14be 1553 6bbe 688e 443f
00000370: 1d00 653c 966a 01bf ba18 e5bd 25c3 213e
00000380: f6d9 1fbe e9c5 b93e 9723 883e 2483 59bd
00000390: 711c 10be 9961 92be cd74 3fbe aa0e fdbe
000003a0: 0261 b63e 3a01 d43e 32d9 5bbe 44aa dcbd
000003b0: dcf9 e7be 636b fabe 1356 0bbe 828b c7be
000003c0: e9d2 0a3f 860b 4cbb f527 593e 0348 01be
000003d0: 6e5d b93e cb4b c53e 5b24 98bd 7fe3 1f3f
000003e0: f7b4 a5bd faa4 a9be 6867 213d a47d 083d
000003f0: 174b 873e acb2 81be a87f 433e 389b 483e

e3_b f4 [13]
-0.023089552 0.00040839816 -0.017856332 0.007831345 0.01849887 0.0024142892 -0.017068358 -0.00926694
-0.02738621 -0.0049122525 -0.023061408 0.009963882 -0.0001860714
00000000: 4d26 bdbc 461e d639 7147 92bc 0b4f 003c
00000010: f18a 973c 0d39 1e3b f1d2 8bbc 5dd4 17bc
00000020: 0c59 e0bc f6f6 a0bb 47eb bcbc 8d3f 233c
00000030: 291c 43b9

d1_W f4 [13, 30]
0.23742518 -0.0049108677 0.21360402 0.16786502 -0.2134911 0.18972094 0.39739788 0.36687273
-0.29037815 -0.24354479 -0.20724213 0.010987312 -0.92769367 -0.05871814 -0.46303478 -0.3006545
-0.17783856 -0.21504208 0.12036037 0.33783364 -0.03489662 0.5213773 -0.279237 0.10956933
0.31863913 0.028460791 -0.30021536 -0.4157552 -0.17953484 0.03979804 -0.14176852 0.08453784
-0.29464832 0.53925854 0.089770526 -0.055601392 -0.030683367 0.19846378 0.27451283 0.62385756
-0.0067717545 0.3885517 0.5244946 0.16745986 -0.17165843 -0.11485617 0.63872635 0.641416
0.4952822 0.6588299 0.12586671 -0.45991176 -0.045840047 0.20875466 -0.29285246 0.14755143
0.16290955 0.18431424 -0.46837717 0.06798951 -0.15118882 -0.4749299 0.66313833 -0.17207485
0.12903251 -0.08059369 0.60574853 0.52484334 0.24842134 -0.8642877 0.0058524855 0.26112756
0.39914635 -0.24236308 0.6971234 -0.522458 -0.23534212 0.36675677 -0.00061772636 0.801221
0.09035629 -0.26481956 -0.15869263 -0.42053124 -0.51394457 0.24212162 0.22780436 0.48893446
-0.29598075 0.65906334 0.10536245 0.6189246 -0.13025442 -0.09656729 0.097788684 0.4168031
0.097912595 -0.21952048 -0.52606964 -0.23811434 0.20933978 0.3936966 -0.107907645 -0.44570264
0.3770832 -0.52147996 -0.28464967 0.24975316 -0.8517522 0.14416845 -0.22506404 0.028015045
-0.047574457 0.051060658 0.27223608 -0.30534717 0.557355 0.32327497 0.33093917 0.39801735
-0.08204385 0.21143524 -0.025568621 -0.27381468 -0.05695265 -0.46725333 -0.59863335 0.123332866
-0.2446068 0.144979 -0.4001473 0.010280132 0.056416858 0.3654992 0.0863341 0.39946687
0.7385294 0.29910344 -0.855787 0.24333921 0.04118503 0.075845025 0.11724237 0.05446498
0.08436736 -0.14077738 -0.74487454 -0.10830967 -0.31524956 0.5607999 -0.1223293 0.037753437
-0.28549722 -0.102228306 -0.008822407 -0.5378095 0.13702217 0.007895249 -0.47115687 -0.45351088
0.20034544 -0.12407031 -0.26513907 -0.10243287 0.7110579 -0.03719424 0.021065652 -0.58683836
0.6666809 0.33102456 0.39051086 -0.0005542379 0.32241634 0.11322874 0.22683676 -0.067957945
-0.5820679 0.4362107 -0.75895363 -0.12897131 0.003213588 -0.42212954 0.20803727 -0.027802875
-0.17135386 0.25556368 -0.1080281 0.5512357 0.123871304 -0.16730015 -0.74219537 -0.52877784
0.42321682 -0.082642786 -0.14196664 0.63593704 -0.42149374 -0.29125842 -0.20172127 0.2898862
-0.25695673 -0.25375295 -0.64115655 0.22185528 0.32762212 -0.18685034 0.05107098 -0.47311866
-0.18617816 0.52709424 0.14841509 0.81783247 -0.24036919 0.35860664 -0.07668369 0.2598619
-0.04398587 -0.2330648 -0.34117213 1.3260074 0.012993993 -0.89735085 -0.2619341 0.23553103
-0.18734336 0.5212955 0.34974968 -0.15874521 -0.17458664 -0.2953661 -0.26182753 -0.5934211
0.4581101 0.59013915 -0.50327754 -0.46349418 -0.70046645 -0.3371872 -1.2184055 -0.4747905
0.5509392 -0.12546682 0.35516557 -0.233435 0.68918157 0.13140588 -0.1267233 0.98361206
-0.13116978 -0.46899092 0.106467634 -8.441348e-05 0.4074446 -0.37595928 0.30623466 0.3311413
00000000: 961f 733e 58eb a0bb 03bb 5a3e cfe4 2b3e
00000010: 699d 5abe 3546 423e bc77 cb3e bed6 bb3e
00000020: 72ac 94be ce63 79be 4837 54be 2004 343c
00000030: 557d 6dbf 6f82 70bd e512 edbe 63ef 99be
00000040: 501b 36be fe33 5cbe 7f7f f63d 88f8 ac3e
00000050: c2ef 0ebd fc78 053f 27f8 8ebe e365 e03d
00000060: ab24 a33e 9b26 e93c d4b5 99be dedd d4be
00000070: fbd7 37be 4503 233d c42b 11be 2d22 ad3d
00000080: 25dc 96be d90c 0a3f 9cd9 b73d 49be 63bd
00000090: af5b fbbc 173a 4b3e f28c 8c3e 21b5 1f3f
000000a0: 98e5 ddbb 40f0 c63e 4745 063f 997a 2b3e
000000b0: 3ac7 2fbe b639 ebbd 9283 233f d733 243f
000000c0: a195 fd3e 14a9 283f 34e3 003e 8e79 ebbe
000000d0: c6c2 3bbd c8c3 553e c2f0 95be b917 173e
000000e0: c3d1 263e dfbc 3c3e 22cf efbe 163e 8b3d
000000f0: 3ed1 1abe 032a f3be 6fc3 293f 6434 30be
00000100: 1921 043e 4e0e a5bd 5612 1b3f 225c 063f
00000110: 2a62 7e3e f541 5dbf 35c6 bf3b 83b2 853e
00000120: e95c cc3e 072e 78be ae76 323f cfbf 05bf
00000130: 86fd 70be 8bc7 bb3e eaee 21ba d21c 4d3f
00000140: b80c b93d 6e96 87be 5280 22be df4f d7be
00000150: df91 03bf bbee 773e 8c45 693e 9e55 fa3e
00000160: ca8a 97be 60b8 283f 45c8 d73d d871 1e3f
00000170: 6a61 05be 12c5 c5bd 6f45 c83d 3767 d53e
00000180: 6686 c83d fac9 60be 80ac 06bf 3fd4 73be
00000190: 2b5d 563e 9a92 c93e affe dcbd 2333 e4be
000001a0: 0d11 c13e b67f 05bf 9abd 91be 4bbf 7f3e
000001b0: 6f0c 5abf e5a0 133e 3077 66be cf7f e53c
000001c0: 6fdd 42bd fb24 513d 8762 8b3e 7756 9cbe
000001d0: d1ae 0e3f 4c84 a53e dc70 a93e eec8 cb3e
000001e0: 9b06 a8bd 7b82 583e 4975 d1bc 7031 8cbe
000001f0: 2f47 69bd d43b efbe 0940 19bf f195 fc3d
00000200: 347a 7abe 6075 143e 1be0 ccbe 006e 283c
00000210: 5d15 673d b622 bb3e efcf b03d ec86 cc3e
00000220: 4310 3d3f 1624 993e db14 5bbf ea2d 793e
00000230: a2b1 283d a354 9b3d c51c f03d ac16 5f3d
00000240: cbc8 ac3d f227 10be 19b0 3ebf 76d1 ddbd
00000250: 6468 a1be 9590 0f3f c987 fabd 59a3 1a3d
00000260: b12c 92be 135d d1bd db8b 10bc e2ad 09bf
00000270: 8a4f 0c3e 135b 013c 793b f1be 9432 e8be
00000280: 5b27 4d3e 9318 febd 4fc0 87be 53c8 d1bd
00000290: e407 363f fd58 18bd e091 ac3c 0a3b 16bf
000002a0: 99ab 2a3f 0d7c a93e 0af1 c73e 474a 11ba
000002b0: c113 a53e 78e4 e73d e547 683e 892d 8bbd
000002c0: 6702 15bf 0257 df3e c94a 42bf 0e11 04be
000002d0: 0f9b 523b 5d21 d8be b907 553e dbc2 e3bc
000002e0: 6377 2fbe 3ed9 823e d63d ddbd c81d 0d3f
000002f0: 3db0 fd3d bb50 2bbe 8400 3ebf fc5d 07bf
00000300: e0af d83e 9f40 a9bd b45f 11be c5cc 223f
00000310: 07ce d7be d31f 95be 0590 4ebe f76b 943e
00000320: d58f 83be e8eb 81be d622 24bf 082e 633e
00000330: 16be a73e b255 3fbe ce2f 513d 9c3c f2be
00000340: 7da5 3ebe a6ef 063f 20fa 173e 785d 513f
00000350: 5723 76be 4a9b b73e 570c 9dbd 9e0c 853e
00000360: 872a 34bd 8aa8 6ebe 1dae aebe 9cba a93f
00000370: c2e4 543c c9b8 65bf 3a1c 86be 0c2f 713e
00000380: f0d6 3fbe 9f73 053f 6412 b33e 1b8e 22be
00000390: d7c6 32be 3a3a 97be 420e 86be 72ea 17bf
000003a0: 688d ea3e 5c13 173f ccd6 00bf 1c4f edbe
000003b0: c551 33bf cda3 acbe b6f4 9bbf be17 f3be
000003c0: 5a0a 0d3f 607a 00be 43d8 b53e 9609 6fbe
000003d0: 346e 303f 438f 063e c1c3 01be 00ce 7b3f
000003e0: 5f51 06be 941f f0be b40b da3d 2407 b1b8
000003f0: 949c d03e bc7d c0be caca 9c3e 5a8b a93e

d1_b f4 [30]
0.022823434 -0.0033163768 0.011462579 0.07514826 -0.0059329676 0.0333858 0.029945968 -0.002409938
-0.040634807 -0.013420311 0.0187276 -0.03772324 -0.04768165 -0.022149326 0.010260439 -0.013637188
0.02022128 -0.0710547 0.00685188 -0.0072732684 -0.011196187 -0.016686745 -0.028064992 -0.02528817
-0.0038497539 -0.00816366 -0.01107873 0.01713222 -0.0072128056 -0.018688139
00000000: 36f8 ba3c 9257 59bb 8acd 3b3c 55e7 993d
00000010: 5769 c2bb 8cbf 083d 3f51 f53c 0df0 1dbb
00000020: af70 26bd dde0 5bbc a06a 993c af83 1abd
00000030: d54d 43bd 8172 b5bc 661b 283c 836e 5fbc
00000040: 19a7 a53c 2085 91bd bc85 e03b 9954 eebb
00000050: 3670 37bc a4b2 88bc 8ee8 e5bc 2329 cfbc
00000060: 274c 7cbb dfc0 05bc 9083 35bc df58 8c3c
00000070: 6659 ecbb de17 99bc

d2_W f4 [30, 30]
-0.052120022 0.12309363 0.30141562 0.0076022265 -0.18843351 0.2898504 0.22111057 0.21532814
0.03833847 -0.31979352 -0.22263497 -0.055373136 -0.15309384 -0.038836133 -0.063845396 -0.20980172
-0.15603293 -0.3920934 0.10243468 0.123856224 -0.027232848 0.32061082 -0.20088366 0.06876928
0.21677305 -0.11876905 -0.23595615 0.011841138 -0.35986292 -0.053957976 -0.2732486 -0.084056996
-0.020817574 0.11778717 0.09263282 0.028313901 -0.19452035 -0.05784822 0.21475773 0.38768426
-0.34018594 0.38268945 0.35082406 0.1695344 0.073336475 -0.102805264 0.382903 0.48761708
0.45622432 0.3093186 0.073858716 -0.31422064 -0.02126126 0.136803 -0.3381221 0.1218883
0.09209335 0.21569681 -0.19911979 -0.1578878 -0.12092682 -0.34832662 0.26237103 -0.14662354
0.19354083 -0.14563778 0.62768 0.32274643 0.17549926 -0.34422505 0.11162742 0.15413776
0.25061917 -0.24921854 0.547929 -0.34994346 -0.16500013 0.027983895 0.0038335146 0.5063914
0.034999564 -0.16207908 -0.1083757 -0.30570668 -0.35025474 0.085708626 0.06752208 0.37730974
-0.36298767 0.4071501 -0.24229953 0.49113718 -0.17160998 -0.21517609 0.21144061 0.41361177
0.07094872 -0.18076074 -0.31731483 -0.35334015 0.18491273 0.27980924 0.018565975 -0.2538088
0.10009244 -0.35099667 -0.199807 0.2575264 -0.58098394 0.23694114 -0.14292578 -0.0026727025
-0.050511185 0.02184093 0.29726848 -0.24505658 0.13199292 0.12570396 0.13586657 0.25661534
0.19987962 0.21209188 0.0134255495 -0.36839142 -0.04350422 -0.20039418 -0.36722416 0.06673222
-0.15226339 -0.26709703 -0.27678624 0.069304995 0.08700127 0.3394154 -0.003592752 0.26900187
0.36206323 0.2950279 -0.61071885 0.31571713 0.08768951 0.104852505 0.09743862 0.092849776
0.08662654 -0.09613333 -0.49100012 -0.028121661 -0.20700452 0.278897 -0.19198632 0.08031769
-0.104610994 -0.15661846 0.25171384 -0.27018043 0.034308422 -0.058341 -0.23243561 -0.64764553
0.09800539 -0.07792508 -0.2368926 -0.039399546 0.3169641 -0.0366011 0.0068178144 0.12152813
0.42028284 0.27842283 0.30356476 -0.013238275 0.20647833 0.049547575 0.18318442 0.18208253
-0.3733225 0.29898092 -0.26367733 -0.07213283 -0.072228074 -0.31106094 0.17734142 -0.07207
-0.05145016 0.09439585 0.06216496 0.33602774 0.047935918 -0.032556735 -0.4754484 -0.3483864
0.26613635 -0.0477026 -0.121083915 0.40227988 -0.32862532 -0.1419093 -0.13077483 0.17542556
-0.18575968 -0.14340042 -0.43321553 0.16481647 0.24750145 -0.106290564 0.015869938 -0.3276668
-0.33192188 0.3252023 -0.010177351 0.5865697 -0.26019055 0.12791237 -0.37815636 0.32806772
-0.1245425 -0.1722552 -0.1519517 0.78497666 0.0819405 -0.44081068 -0.00963629 0.17483464
-0.278557 0.3282518 0.24318492 -0.18021122 -0.13281704 -0.11440127 -0.16009603 -0.37889203
0.28455904 0.3756611 -0.21890265 -0.15186189 -0.4590818 -0.11317105 -0.210688 -0.30916867
0.33082673 -0.07988298 0.22055331 -0.12625127 0.45111582 0.05200292 -0.10659648 0.65903306
-0.08646148 -0.31531852 0.059407387 -0.010027164 0.27099204 -0.23796485 0.20770408 0.22017871
00000000: ce7b 55bd 8318 fc3d 2653 9a3e 191c f93b
00000010: b7f4 40be 4667 943e cf6a 623e fb7e 5c3e
00000020: cd08 1d3d fabb a3be 6cfa 63be f1ce 62bd
00000030: a2c4 1cbe a312 1fbd 60c1 82bd 43d6 56be
00000040: 19c7 1fbe 77c0 c8be 46c9 d13d 55a8 fd3d
00000050: 6c17 dfbc 1a27 a43e 72b4 4dbe e9d6 8c3d
00000060: c1f9 5d3e 303d f3bd 7d9e 71be 5501 423c
00000070: f43f b8be 0a03 5dbd 3ee7 8bbe 1326 acbd
00000080: 9e89 aabc 663a f13d 47b6 bd3d 8ef2 e73c
00000090: 5830 47be 41f2 6cbd 73e9 5b3e 8d7e c63e
000000a0: da2c aebe dfef c33e 369f b33e 6d9a 2d3e
000000b0: 6f31 963d 918b d2bd dd0b c43e f2a8 f93e
000000c0: 3c96 e93e 025f 9e3e 3d43 973d 87e1 a0be
000000d0: 182c aebc 1616 0c3e 571e adbe 93a0 f93d
000000e0: 709b bc3d a0df 5c3e 0fe6 4bbe 57ad 21be
000000f0: 7ba8 f7bd de57 b2be 7f55 863e 7b24 16be
00000100: 912f 463e 1222 15be a3af 203f 053f a53e
00000110: 14b6 333e 443e b0be eb9c e43d 4ad6 1d3e
00000120: 2851 803e 2533 7fbe 1345 0c3f ca2b b3be
00000130: cbf5 28be 7b3e e53c b43b 7b3b dea2 013f
00000140: b45b 0f3d 0ff8 25be 14f4 ddbd 9685 9cbe
00000150: 9754 b3be 0188 af3d 0449 8a3d be2e c13e
00000160: 85d9 b9be fa75 d03e 5e1d 78be 5576 fb3e
00000170: 87ba 2fbe 1f57 5cbe e383 583e ecc4 d33e
00000180: 904d 913d 5819 39be 1777 a2be 00e9 b4be
00000190: c359 3d3e 2843 8f3e ac17 983c 3af3 81be
000001a0: 44fd cc3d d6b5 b3be 359a 4cbe 80da 833e
000001b0: 5dbb 14bf b3a0 723e 235b 12be 8228 2fbb
000001c0: d1e4 4ebd c0eb b23c 9333 983e 1df0 7abe
000001d0: 2729 073e 8ab8 003e 9b20 0b3e 1663 833e
000001e0: 3ead 4c3e 9d2e 593e d6f6 5b3c cd9d bcbe
000001f0: 7b31 32bd 2234 4dbe ce04 bcbe e7aa 883d
00000200: efea 1bbe f1c0 88be edb6 8dbe c7ef 8d3d
00000210: b92d b23d dbc7 ad3e 6074 6bbb 9dba 893e
00000220: 5a60 b93e e60d 973e 1258 1cbf ada5 a13e
00000230: 8f96 b33d e9bc d63d e68d c73d 0628 be3d
00000240: 4169 b13d 8de1 c4bd 5e64 fbbe 665f e6bc
00000250: fef8 53be 96cb 8e3e 1098 44be 9a7d a43d
00000260: 4a3e d6bd 9760 20be a3e0 803e 1755 8abe
00000270: fd86 0c3d f9f6 6ebd 9a03 6ebe 19cc 25bf
00000280: 0db7 c83d 2f97 9fbd f993 72be 6b61 21bd
00000290: 1e49 a23e 09eb 15bd f967 df3b bde3 f83d
000002a0: 502f d73e 708d 8e3e d76c 9b3e 5ae5 58bc
000002b0: 0e6f 533e 66f2 4a3d b294 3b3e d873 3a3e
000002c0: 2024 bfbe 0714 993e b700 87be 61ba 93bd
000002d0: 50ec 93bd 6143 9fbe fd98 353e 7099 93bd
000002e0: 67bd 52bd 9d52 c13d afa0 7e3d d40b ac3e
000002f0: 7458 443d 365a 05bd f96d f3be b45f b2be
00000300: 0643 883e cd63 43bd d8fa f7bd a1f7 cd3e
00000310: 9441 a8be ac50 11be d6e9 05be c2a2 333e
00000320: c937 3ebe 8fd7 12be 6dce ddbe a6c5 283e
00000330: 0571 7d3e deae d9bd ac01 823c f1c3 a7be
00000340: aaf1 a9be ea80 a63e e7be 26bc 6f29 163f
00000350: b237 85be 76fb 023e b69d c1be 7ef8 a73e
00000360: 2310 ffbd ab63 30be 3a99 1bbe 3bf4 483f
00000370: 6cd0 a73d f0b1 e1be 88e1 1dbc da07 333e
00000380: 069f 8ebe 9f10 a83e 7805 793e 4a89 38be
00000390: 3101 08be 374b eabd 37f0 23be 23fe c1be
000003a0: b9b1 913e a756 c03e 0428 60be af81 1bbe
000003b0: c50c ebbe 39c6 e7bd 98be 57be 5b4b 9ebe
000003c0: 1f62 a93e b099 a3bd bad8 613e 0348 01be
000003d0: a7f8 e63e 0401 553d 414f dabd 64b6 283f
000003e0: b712 b1bd 6e71 a1be 2955 733d f948 24bc
000003f0: 78bf 8a3e 0fad 73be 61b0 543e 8776 613e

d2_b f4 [30]
-0.0227383 0.0040556984 -0.0041912 -0.019311788 0.008056578 -0.005701157 0.041704103 -0.02389189
0.0015070899 0.020247562 -0.0013505147 -0.0105290525 -0.003259575 -0.025481476 -0.010581876 -0.022507975
0.0014369119 0.005960153 -0.008529078 -0.006225425 -0.012827927 -0.019967377 -0.020180425 -0.020790316
0.055187277 0.010304257 -0.021791618 -0.0011434635 0.021031106 -0.032904964
00000000: ac45 babc aae5 843b 5556 89bb c133 9ebc
00000010: bdff 033c c5d0 babb ecd1 2a3d edb8 c3bc
00000020: 8c89 c53a 37de a53c c103 b1ba 0c82 2cbc
00000030: 989e 55bb 87be d0bc 9b5f 2dbc a562 b8bc
00000040: c356 bc3a 634d c33b 8cbd 0bbc a6fe cbbb
00000050: 3a2c 52bc a092 a3bc 6b51 a5bc 7450 aabc
00000060: 0e0c 623d 30d3 283c 5684 b2bc 45e0 95ba
00000070: 6d49 ac3c 5bc7 06bd

out_W f4 [30, 11]
0.10237826 -0.22899532 -0.34912458 -0.36133698 0.22507714 0.2874654 0.054289773 0.15079734
0.03887076 0.33981788 0.2452337 -0.27337265 0.22099322 -0.31657287 0.11535886 -0.28293607
0.20648621 -0.15901081 -0.3054779 -0.20878063 -0.34090135 -0.40245253 0.14152128 0.117685154
0.14444806 -0.037696112 0.4293046 0.32990935 0.08585635 0.10167802 0.20676425 -0.057020377
-0.2773917 0.15412079 0.004164063 -0.1603778 -0.026574407 0.28024387 0.31691808 -0.12495307
0.038271606 -0.15494883 0.053777725 -0.13947664 -0.030068034 0.3096778 -0.14484534 0.09991358
-0.289844 0.18221179 0.15571286 -0.10814044 0.34208357 -0.30757958 -0.22500256 -0.3188343
-0.19815975 -0.12905253 -0.07782815 -0.26923826 -0.2709495 -0.27553114 -0.3994344 0.04359695
-0.099616915 0.11823515 -0.53941566 0.066231824 -0.26947397 -0.07173261 0.110709116 0.31064308
0.042998668 0.284041 0.062120188 -0.17103346 0.25050318 0.3614553 0.32578135 -0.047692645
0.17745598 -0.023323962 0.0046220603 0.20061871 -0.08295549 0.15951648 0.14207062 0.3155103
-0.284678 0.20653893 0.38646665 0.40565968 -0.3199052 0.24162899 0.32048574 0.27036792
-0.22077039 0.38461295 0.3045534 0.33663514 0.03794209 -0.110231355 0.20218405 0.18927664
-0.10651808 -0.0006202028 -0.16627368 0.34307903 -0.2572167 0.085844316 0.1319361 -0.29293773
0.2665723 -0.2973323 0.3843439 -0.115225025 0.08269229 -0.14546517 0.12287197 -0.367139
-0.16433819 -0.044664368 0.3650147 0.05671474 -0.17644393 -0.18913269 0.30450457 -0.20171988
-0.27574658 -0.15419842 0.07440732 0.034182098 0.2902368 0.08646384 -0.10707319 -0.04871957
0.19580607 0.080177285 0.32564288 -0.05064933 0.12970538 0.104427345 0.15207115 -0.25140262
-0.05452532 0.34008613 -0.3315956 0.2644545 -0.057106674 0.25203764 -0.3735092 -0.08139896
-0.30420306 0.10978364 -0.13598646 0.20710148 0.18403809 -0.24695908 0.099426635 -0.19443937
0.06648058 -0.43283114 -0.062536664 0.34584093 0.08744996 -0.16825524 -0.19782215 0.2560575
0.27006653 -0.013531435 -0.14075737 0.35731494 -0.16215584 -0.25553566 0.28113136 0.23132129
0.13342917 0.35632864 0.33045956 0.19601895 0.28088468 -0.18743962 -0.26877525 0.12757266
0.16934004 -0.24879119 -0.08724415 0.37170637 0.13971107 0.12466014 -0.22793926 -0.015491069
0.014767826 -0.3122171 0.22353932 0.064550035 -0.32426977 0.11614248 0.3772062 0.07959615
-0.12621129 -0.22880313 0.14272687 -0.22368936 0.06804457 0.0850012 0.36468598 -0.31684744
-0.0082583465 0.17047527 -0.26987973 -0.06949314 -0.29422483 0.1490516 -0.31854048 -0.087613344
0.15213633 0.04090657 0.3297313 0.21690233 0.30206397 -0.2908058 -0.35172865 -0.34272113
0.26133513 0.11651327 -0.011070871 -0.262077 0.10541653 -0.16720527 0.13930745 -0.040183697
-0.0121617215 0.20050143 -0.3237536 0.050916355 -0.24519809 0.22074027 -0.01761661 0.35417804
-0.24912372 0.35733172 0.21513617 -0.028827332 0.22502422 0.063295476 0.099303275 0.30204403
-0.34728092 0.23997134 -0.097730555 -0.13800295 0.37152648 0.18070115 -0.04605998 -0.098515265
00000000: b1ab d13d c07d 6abe 75c0 b2be 2901 b9be
00000010: 9f7a 663e aa2e 933e f45e 5e3d 9e6a 1a3e
00000020: f236 1f3d 9cfc ad3e 8b1e 7b3e 80f7 8bbe
00000030: 0c4c 623e d715 a2be 4441 ec3d ffdc 90be
00000040: 1f71 533e bbd3 22be 9967 9cbe 97ca 55be
00000050: 9f8a aebe 420e cebe f4ea 103e ea04 f13d
00000060: 31ea 133e 3d67 1abd d0cd db3e e1e9 a83e
00000070: 74d5 af3d 913c d03d 02ba 533e 338e 69bd
00000080: 4906 8ebe d7d1 1d3e b172 883b 143a 24be
00000090: 92b2 d9bc 207c 8f3e 1643 a23e 65e7 ffbd
000000a0: b0c2 1c3d e8aa 1ebe 0846 5c3d f7d2 0ebe
000000b0: 3d51 f6bc 178e 9e3e 5652 14be 7e9f cc3d
000000c0: 6f66 94be ba95 3a3e 3173 1f3e bc78 ddbd
000000d0: 9425 af3e 127b 9dbe 1267 66be 403e a3be
000000e0: 64ea 4abe 5926 04be 5d64 9fbd 99d9 89be
000000f0: e5b9 8abe 6b12 8dbe aa82 ccbe b792 323d
00000100: f403 ccbd 4525 f23d 2517 0abf 8da4 873d
00000110: 7ef8 89be 8ce8 92bd 76bb e23d 9c0c 9f3e
00000120: 5f1f 303d d26d 913e bd71 7e3d 6523 2fbe
00000130: f441 803e ab10 b93e d0cc a63e 5d59 43bd
00000140: 05b7 353e e511 bfbc a774 973b fe6e 4d3e
00000150: 91e4 a9bd 4a58 233e f67a 113e 918a a13e
00000160: 51c1 91be f17e 533e f5de c53e a0b2 cf3e
00000170: 9dca a3be 976d 773e b516 a43e aa6d 8a3e
00000180: a211 62be fdeb c43e 6cee 9b3e 715b ac3e
00000190: 2a69 1b3d fac0 e1bd 5609 4f3e bcd1 413e
000001a0: 2726 dabd 1b95 22ba a643 2abe 0ea8 af3e
000001b0: e8b1 83be 25cf af3d 421a 073e effb 95be
000001c0: 2a7c 883e f03b 98be b9c8 c43e 19fb ebbd
000001d0: 935a a93d d2f4 14be 4da4 fb3d a5f9 bbbe
000001e0: 4548 28be fcf1 36bd 35e3 ba3e b74d 683d
000001f0: b8ad 34be 00ac 41be 06e8 9b3e a88f 4ebe
00000200: a82e 8dbe 31e6 1dbe dd62 983d 8702 0c3d
00000210: eb99 943e f413 b13d 3049 dbbd 2c8e 47bd
00000220: 6381 483e fd33 a43d aaba a63e ac75 4fbd
00000230: 7dd1 043e 01de d53d 8ab8 1b3e d8b7 80be
00000240: f155 5fbd c51f ae3e e6c6 a9be 9566 873e
00000250: b0e8 69bd 140b 813e 993c bfbe 7fb4 a6bd
00000260: 81c0 9bbe 3fd6 e03d 0940 0bbe 6912 543e
00000270: 7b74 3c3e d7e2 7cbe 31a0 cb3d 1d1b 47be
00000280: f826 883d 0b9c ddbe 3913 80bd 1012 b13e
00000290: f718 b33d 1a4b 2cbe e491 4abe f819 833e
000002a0: 2946 8a3e f4b2 5dbc b322 10be fcf1 b63e
000002b0: 2e0c 26be 92d5 82be 73f0 8f3e 7ddf 6c3e
000002c0: a8a1 083e b570 b63e ff31 a93e 31b9 483e
000002d0: 1ed0 8f3e 2cf0 3fbe e99c 89be 68a2 023e
000002e0: 7a67 2d3e 1ec3 7ebe 10ad b2bd 4c50 be3e
000002f0: 6b10 0f3e d14d ff3d e968 69be 41ce 7dbc
00000300: c0f4 713c ebda 9fbe 7ee7 643e cf32 843d
00000310: b006 a6be 1cdc ed3d 2c21 c13e 4e03 a33d
00000320: 883d 01be 5e4b 6abe fe26 123e d30e 65be
00000330: f45a 8b3d 1c15 ae3d 1fb8 ba3e d439 a2be
00000340: 044e 07bc 1291 2e3e ad2d 8abe 6b52 8ebd
00000350: a3a4 96be fca0 183e bd17 a3be a06e b3bd
00000360: a0c9 1b3e a68d 273d 8ad2 a83e a51b 5e3e
00000370: 21a8 9a3e 7fe4 94be c715 b4be 2579 afbe
00000380: b8cd 853e 829e ee3d 9962 35bc f52e 86be
00000390: 9fe4 d73d dc37 2bbe 9da6 0e3e a997 24bd
000003a0: f541 47bc 3f50 4d3e 08c3 a5be ab8d 503d
000003b0: 3515 7bbe bd09 623e b550 90bc d356 b53e
000003c0: 4a1a 7fbe 2ff4 b63e a84c 5c3e 4c27 ecbc
000003d0: c06c 663e 0fa1 813d 845f cb3d 84a5 9a3e
000003e0: cece b1be 0cbb 753e f526 c8bd a550 0dbe
000003f0: b838 be3e b909 393e 64a9 3cbd 5fc2 c9bd

out_b f4 [11]
-0.009556441 -0.049367916 -0.019377712 0.007982687 -0.022072494 -0.020934837 -0.024451688 -0.0380041
0.015913824 0.0072593438 -0.013062219
00000000: 9e92 1cbc 0336 4abd 02be 9ebc d1c9 023c
00000010: 60d1 b4bc 897f abbc e84e c8bc 30aa 1bbd
00000020: b55d 823c cadf ed3b eb02 56bc
