Chapter 2/ae_weights.npz (npz, 15112 bytes, 12 tensors)

e1_W f4 [10, 30]
00000000: 4303 203e bfa3 a03d e82c 6b3e 7373 953d
00000010: 47b7 79be 4e35 f03d b9b0 853e 25f5 ae3e
00000020: bf27 b8be 1104 23bf 6580 a2be 4324 4f3e
00000030: 7968 6bbf e97e e9bd 2857 a1be 69e0 d5be
00000040: a221 83be 8d4b d9bc a98d 053e 227d de3e
00000050: 6ee6 85be 89f6 203f e5ee 96be 8557 123e
00000060: 462b d03e d8fb 95bd e3bc c8be a1f3 abbe
00000070: 44d9 45be 262b ca3e a680 8fbe ba27 09be
00000080: b48e a5bc e64c 193e 1ea9 e73d 5990 603d
00000090: bdb4 b9be 507b d7bd 846c a03e eb94 103f
000000a0: 5aef 1dbf 8485 443f 487a 1b3f ff5f 983e
000000b0: 9acf 1a3e a345 93be 29fa 193f 0304 713f
000000c0: 5cfc 3a3f 1e9e 2a3f 78ed 0b3e 30e1 05bf
000000d0: dcae 91bd 39e5 cc3e 0a3a 11bf b5a5 aa3c
000000e0: a4a3 4b3e 242e c73e 046a 05bf 5549 a1be
000000f0: 676f 9ebd 1f64 ecbe f644 5e3f 8495 bfbe
00000100: ec8c 963e b3db 70be 9ed5 4b3f a5c1 173f
00000110: 308e 913e 1d2c 86bf de7a 8c3c 18e0 b33e
00000120: 6bdb 113f f779 8abe d735 4a3f 9efd 22bf
00000130: 097f 9ebe fa43 053f a3f0 9a3c 5bab 5c3f
00000140: 4db5 b33d 7d67 a3be 1b9a 8dbe 9560 ccbe
00000150: 6d2e 14bf d5bc 973d edd9 a03e 889d 113f
00000160: 3722 a0be a0a7 493f 8070 1fbd 4b30 363f
00000170: dfd1 c8bd 0b89 d1be 61c1 dc3d 6f42 7e3e
00000180: cb9e a43e 7c18 b0be 8751 0ebf f0bf 2ebf
00000190: 8cec 843e f3d6 ff3e 9447 04bc de7f 0ebf
000001a0: f45c bd3e 41a3 2cbf a9f9 a2be a945 a33e
000001b0: 7daa 7fbf dc3f 3a3e a724 b6be b8f9 7bb9
000001c0: d0e9 e73c 54f1 af3d 515f 8b3e c70a cebe
000001d0: f21e 1e3f a8e6 863e b8c9 d13e 7284 1c3f
000001e0: 0c6b 883e 5290 d03e cd50 e93b aa45 26bf
000001f0: cf7f 953d d8e3 e9be dcb6 11bf 8edf 4bbd
00000200: d65e 6abe c1fd fcbe 5065 e8be 2f1a 3c3e
00000210: a746 5f3e 8f7e ee3e 944c 993d a5e5 793e
00000220: dbae 0b3f f134 c63e 96ce 86bf 6d85 1a3f
00000230: 6a8e 973d 256f 2e3e d91a 353e 56f1 e53d
00000240: 26f8 063d 5e95 0fbe 2b5d 5abf 03dd 983d
00000250: b1a0 b3be 7f65 283f 5f51 78be 4857 273e
00000260: 1a7e 95be 7430 6dbe 92f7 0e3d eb7c 29bf
00000270: 161f 4c3e 601c 97bd c61b 01bf ee60 8bbf
00000280: 4245 693e 77b1 34bd a9e8 57be 0255 25be
00000290: ae16 4f3f e07a fcbd f619 5b3d 4395 0abf
000002a0: 0603 483f 1b45 093f 72ef a93e 2607 a9bb
000002b0: 0ff6 ba3e 52a1 053e 98ab 163e c8c6 85bd
000002c0: c4b5 24bf 0907 ef3e c3a5 54bf c8b9 273e
000002d0: 6b64 1abe b9cd cbbe 4d2e cb3e e704 febd
000002e0: 6a80 c9bd 3200 403e 5e29 09be 5d4b 1a3f
000002f0: e510 203e bf6c 85be 7d2c 56bf cbbc 08bf
00000300: 77f2 003f 5852 adbd 1bb4 9dbd 1bd4 233f
00000310: b4f2 09bf 011c 1dbe 4317 1cbe 5f04 c53e
00000320: 76f0 d2be 661b 9bbe a229 3ebf e593 863e
00000330: f8d9 a93e 2de6 68be 8749 7f3d a009 f0be
00000340: 1e03 47be 0fdb 3a3f 01be 923d d8f9 7b3f
00000350: f3c7 49be 785a 163e 5dc5 b4bd a4e1 753e
00000360: a641 533e c01c 0ebe 1c67 babe 5588 a03f
00000370: de44 19bd 20b4 57bf 9624 9fbe b5f3 7e3e
00000380: 6805 9dbe 0cac 0a3f 7836 e53e 313d 023e
00000390: 6b00 31be c789 a7be 9144 80be ec9b 26bf
000003a0: 06c2 d23e 3291 393f e34c 24bf a368 16bf
000003b0: 2d88 3abf 55d2 d6be 3a96 aabf 9cbe 2cbf
000003c0: 33f9 193f 8b64 11be a8d4 d63e 221f 7ebe
000003d0: e83f 463f 7188 0f3c 2c81 79be 3cc8 8c3f
000003e0: d18f cebd 546f 0bbf b5c3 a53d 33a3 0ebd
000003f0: 8645 f03e 1546 fdbe cc71 e33e d1d0 933e
0.15626244 0.07843732 0.22966349 0.07297411 -0.24386321 0.11728917 0.2611139 0.34171405
-0.35967824 -0.6367808 -0.31738582 0.20228676 -0.9195629 -0.11401159 -0.31511807 -0.41772774
-0.25611597 -0.026525283 0.1304232 0.43454844 -0.26152366 0.6287618 -0.29479137 0.14291199
0.40658015 -0.07323426 -0.3920661 -0.33584312 -0.19321162 0.39486045 -0.28027838 -0.1339406
-0.020209648 0.1497074 0.113115534 0.05482516 -0.36270705 -0.10521567 0.3133279 0.5647723
-0.61693347 0.7676623 0.6073346 0.2976074 0.15118256 -0.28764066 0.6014734 0.94146746
0.7304132 0.6664752 0.13664806 -0.52296734 -0.0711343 0.40018633 -0.56729186 0.020830968
0.19886643 0.3890239 -0.5211489 -0.3150126 -0.07736092 -0.46170136 0.86823976 -0.3741876
0.2940439 -0.23521309 0.7962283 0.59279853 0.28428793 -1.0482212 0.017148431 0.35131907
0.5697543 -0.27046177 0.78988403 -0.6366824 -0.30956295 0.5205685 0.018913573 0.8619897
0.08774815 -0.31914893 -0.27656636 -0.39917436 -0.5788334 0.07409064 0.31416264 0.56881
-0.31276104 0.787714 -0.038925648 0.7116744 -0.09805655 -0.40924868 0.107790716 0.2483003
0.321524 -0.3439368 -0.5559315 -0.68261623 0.2596172 0.4996868 -0.008073706 -0.5566386
0.3698498 -0.67436606 -0.318311 0.31889084 -0.9986952 0.18188423 -0.3557484 -0.00024030253
0.028309733 0.085909516 0.27221158 -0.40242597 0.6176597 0.26347852 0.40974212 0.61139596
0.2664417 0.40735108 0.007120228 -0.6495005 0.07299768 -0.45681643 -0.56919646 -0.049773745
-0.2288774 -0.4941235 -0.45389795 0.18369363 0.21804295 0.46580932 0.07485309 0.24404009
0.54563683 0.38712266 -1.0531795 0.6035984 0.0740021 0.17034586 0.17686023 0.11227672
0.032951497 -0.14021823 -0.85298413 0.0746403 -0.35083535 0.6577987 -0.2424979 0.16341889
-0.2919777 -0.23163015 0.03490407 -0.66206235 0.19933733 -0.07378459 -0.50433004 -1.0888956
0.22780326 -0.044114556 -0.21084847 -0.16145709 0.8089398 -0.12328124 0.053491555 -0.54134005
0.78129613 0.5362107 0.33190495 -0.005158323 0.36515853 0.1304982 0.14713895 -0.06532055
-0.6433985 0.46685055 -0.8306543 0.16379464 -0.15077369 -0.3980539 0.39683762 -0.12403279
-0.09838946 0.18750075 -0.13394687 0.60271245 0.15631445 -0.2605953 -0.83661634 -0.53413075
0.5036997 -0.084629714 -0.07700368 0.6399552 -0.5388596 -0.15342714 -0.15243249 0.38479897
-0.41199082 -0.3029434 -0.74282277 0.2628471 0.3317411 -0.22744055 0.06232598 -0.46882343
-0.19434783 0.72990507 0.071651466 0.98428106 -0.19705181 0.14682949 -0.088267066 0.24011856
0.20630512 -0.13878155 -0.3640679 1.2541605 -0.037419192 -0.84259224 -0.310826 0.24897654
-0.30668187 0.5416877 0.4476812 0.12718655 -0.17285316 -0.32722303 -0.25052312 -0.6508167
0.41163653 0.72487175 -0.6417982 -0.5875341 -0.7286404 -0.41957346 -1.3327096 -0.67478347
0.6014587 -0.1419851 0.4195912 -0.24816564 0.77441263 0.0087605575 -0.24365681 1.0998607
-0.100860246 -0.5446675 0.08093969 -0.034823608 0.46928042 -0.4946753 0.44422758 0.28870252

e1_b f4 [30]
00000000: 6676 253e 505c ea3d c525 a43d f8b8 803c
00000010: d0d5 e13c d610 653d 2854 913d 76de 813d
00000020: ab6f cabc 0adb 9a3c 64ca 07bd 9102 4cbb
00000030: 3a36 0d3e 653d ffbc 5bea d3bc 7539 283c
00000040: 435c 98bd 7163 f23c a597 9fbc 1f76 8d3d
00000050: d46a f4bc 4012 a1bd ddfd 1cbd 20cf e03c
00000060: 3378 cb3b 42a1 1e3d cece 69bd 8e6b a03d
00000070: d133 b73b 76d5 95bc
0.16158447 0.114433885 0.080150165 0.0157132 0.027567774 0.05592426 0.0709613 0.06341259
-0.02471145 0.018903274 -0.033152 -0.003112946 0.13790217 -0.031157205 -0.025868585 0.010267605
-0.074394725 0.029588433 -0.01948149 0.069072954 -0.029836096 -0.07864809 -0.03832804 0.027442515
0.006209397 0.038728006 -0.05708199 0.078330144 0.005590894 -0.018290263

e2_W f4 [30, 30]
00000000: e214 cdbd d69d 19be f6ad 803e 2a02 63bc
00000010: 0288 e8be 3dcb 803e 0902 af3e 41b5 2b3e
00000020: b461 213e d33f b4bd a9c1 15be 7e5d 6ebe
00000030: d56e 1ebe 0aed 073d f6bd 1bbe 1fbe 49bd
00000040: 1069 bcbd 684a a6bd b0e2 bb3d e6a4 1c3e
00000050: 867c 5ebe 4f4a ca3e 3545 cdbd 31f0 8abc
00000060: 48e1 bc3e 6c3e 62be b2f8 56bc 1364 94be
00000070: 1ac0 1fbf b0f0 653e 700d 80be a0ae 69be
00000080: 5c7f 1dbd f0c3 6d3d 0a16 2dbe 94d5 603e
00000090: 8b8b 96bd 9d6f a5bd 9e89 e8bd 1818 c53e
000000a0: d5a7 a8be 3610 a13d 1971 ca3d a04c 7b3e
000000b0: b05e c93d bbe2 2abe 8955 c93e 3eca fd3e
000000c0: b305 ce3e f7f3 a43e 520d 7abe 7bce 29be
000000d0: da69 0cbd 3cb0 903e 67de bbbe 0364 e6be
000000e0: 5103 353d e94c 653e 74a0 dbbd e53e a9bd
000000f0: 31ed ac3c f361 9ebe ed8c d33e 2b21 28be
00000100: ca52 ca3d 690f 4abd 8ac0 003f aa5a 843e
00000110: 8c6e ef3c be58 1cbf 6fb6 ad3d ec3e 9c3d
00000120: 32c4 393e 9c1e 04be 48ce 083f 47c6 b7be
00000130: 262a 7bbd 03a5 ba3e 5689 9dbd e574 dd3e
00000140: 30ed 43bc d391 75be c091 83be 8b2b 74be
00000150: 651a 34bf b450 633e 912e 3abc 61f8 1ebd
00000160: 362e 143e 47c5 cb3e 2d01 c5bc c2be fc3e
00000170: 31c2 ffbd 7fb5 6cbe 23f2 383c f4c3 833e
00000180: e91b da3d 4d4d 3fbe b301 babe 70e9 4abf
00000190: aef8 2b3e a0f4 913e 8b79 e5bd aac9 55be
000001a0: 7d35 213e 538c 16bf a2e8 96be 506d cb3e
000001b0: 1474 edbe 2f42 823d 2c3a 52be a07e 043e
000001c0: 5fa9 47bd 3471 6c3d 5aaf 023e c9c3 31bd
000001d0: 1e82 af3e c49d 193e 2091 503e 2e83 8d3e
000001e0: 06ce ba3e 0a34 58be ac71 303e f17c cbbe
000001f0: 4634 9fbe 4cd8 4abe 5982 3fbe d977 a23d
00000200: d94d 2cbe 0800 08bf 2b63 b9be 9fde 4fbc
00000210: b2e5 55be 3a39 093e f894 29be 7232 67bd
00000220: 47a0 823e cf00 733e 3ded 1bbf 2214 a03e
00000230: b5a0 9a3d 8ab4 55bd f54d 883e 0c98 b3be
00000240: 4d97 abbe 66d6 d1be 860b afbe 708b 84be
00000250: 0d9e 12bf f3cb d53e 665a 67be a58a 953d
00000260: 47e1 37be d881 2ebe 3246 86be f8c3 80be
00000270: 8ba9 8e3e 682d 0cbe d0a9 1dbe 3070 08bf
00000280: ea3a a83e 084a a4bd 3695 af3c 6796 0b3e
00000290: 9336 a03e 9c08 e83d 53b0 2f3e 4081 42be
000002a0: e9a1 f33e 88ab 133e cc09 7dbe 9279 ecbb
000002b0: 676d 723d 49d6 f0bd 3b08 37bd f058 793e
000002c0: 5c4b 0ebf 7238 073e cb40 95be 4254 26be
000002d0: b02b d43d 4a0f 413e 34a5 c7bd 9ff3 adbd
000002e0: 0fb2 85bd e6ac ee3d 5edd 873e 5798 413e
000002f0: 5d41 0c3d a3af d0be 37b3 a4be 929b b5be
00000300: 857d 8d3e ab65 4b3e 519b 713e 2a51 833e
00000310: a117 26be 0a2a 693d 859f 33be 568b e13d
00000320: 747f 32be 2f37 5cbe dd5a 1cbf 67a5 e6bc
00000330: 60e8 de3d dd4e ffbc acf0 a73c bf00 92be
00000340: 4e64 703e 50c0 333e bf2d 033e 60ac 903e
00000350: 02ab 20be db52 ca3d 55b6 e63d 4ea2 333e
00000360: 7ed9 543d 794a 71be 18ff e43c 55dc 323f
00000370: 3782 3fbc 1360 32be 0973 d1be f3e1 133e
00000380: 83d9 6dbd 124a 963e f623 9c3e 2169 453c
00000390: bac1 21be ed55 6fbe 56ef 68bf d984 d5be
000003a0: ef30 463e 6d44 fa3c 3903 79be 6afc 44be
000003b0: 54b9 39bd 180f cd3d d02a 87be c0f8 9cbe
000003c0: 0cdc c63e 224e f6bc 4b82 4e3e 5ab9 27be
000003d0: 6998 cc3e 4563 833d 0d79 3dbd c132 1d3f
000003e0: 66a3 f3bd 2ee9 9cbe d63f ba3d fed2 353c
000003f0: 53f4 513e c414 b9bd af53 8d3d 60da 2d3e
-0.10013749 -0.15001616 0.25132722 -0.013855496 -0.45416266 0.25155059 0.3418124 0.16768362
0.15759927 -0.08801236 -0.14624657 -0.23277852 -0.15471967 0.033185042 -0.15209183 -0.04925358
-0.091997266 -0.081196606 0.091740966 0.15297279 -0.2172719 0.39509818 -0.10022966 -0.016960235
0.36890626 -0.22094125 -0.013120817 -0.289826 -0.624025 0.22455096 -0.25010252 -0.2282052
-0.038451537 0.05804819 -0.16902938 0.21956474 -0.073508345 -0.08077929 -0.113543734 0.38494945
-0.32940546 0.0786442 0.09884853 0.24540949 0.09832513 -0.16688053 0.3932307 0.4956836
0.40238723 0.3221738 -0.24419144 -0.16582672 -0.034280635 0.28259456 -0.36693117 -0.44998178
0.044192616 0.2239262 -0.107239634 -0.08263949 0.021109195 -0.30934104 0.41318455 -0.16418903
0.09879072 -0.049331103 0.5029379 0.2585042 0.029227518 -0.6107291 0.08482062 0.07629189
0.18141249 -0.12902302 0.5343976 -0.3589346 -0.061319493 0.3645402 -0.076922104 0.43253246
-0.011958405 -0.23981409 -0.25697136 -0.23844735 -0.70352775 0.22198755 -0.011363641 -0.03881109
0.14470753 0.39798948 -0.024048412 0.49364287 -0.12488211 -0.2311611 0.011288199 0.25735438
0.10649855 -0.18681832 -0.3632942 -0.7926245 0.16794083 0.28506947 -0.11204823 -0.2087771
0.1574306 -0.5880787 -0.2947436 0.39731836 -0.46377623 0.0636028 -0.20530003 0.12938929
-0.04874551 0.057725146 0.12762204 -0.043399606 0.3427896 0.15001589 0.20367861 0.27639145
0.36485308 -0.21113601 0.17230862 -0.3974376 -0.3109457 -0.19809073 -0.18702067 0.079330154
-0.16826572 -0.5312505 -0.36208472 -0.012687354 -0.20888403 0.13400736 -0.16560733 -0.056444593
0.25512907 0.23730777 -0.6090887 0.3126536 0.07550184 -0.05217413 0.26621976 -0.3507694
-0.3351387 -0.40983886 -0.3418848 -0.25887632 -0.57272416 0.41757163 -0.22593078 0.07301835
-0.1795703 -0.17041719 -0.2622543 -0.25149512 0.27863726 -0.13689196 -0.1539681 -0.53296185
0.32857448 -0.08021933 0.021433454 0.13631593 0.31291637 0.11329767 0.17157106 -0.18994617
0.47584465 0.14420903 -0.24710768 -0.0072166407 0.059186365 -0.11759622 -0.044685584 0.24350333
-0.5558374 0.13205126 -0.29150996 -0.1624308 0.10359895 0.18853489 -0.09748307 -0.08493733
-0.065281026 0.116540715 0.26536077 0.1890577 0.034242023 -0.40759 -0.3216798 -0.35470253
0.27634826 0.19863002 0.23594405 0.2564786 -0.16219951 0.056924857 -0.1754132 0.11012904
-0.17431432 -0.21505426 -0.61076146 -0.028155042 0.10884166 -0.031165535 0.020500503 -0.28516194
0.23475763 0.1755383 0.1281042 0.28256512 -0.15690234 0.09879085 0.11265246 0.17542383
0.05196523 -0.23563565 0.02795367 0.6986745 -0.0116887605 -0.17419462 -0.40908077 0.14441662
-0.058068763 0.29353386 0.30496186 0.0120489905 -0.15796557 -0.23372622 -0.909902 -0.41702917
0.19354604 0.030550206 -0.24317636 -0.19236913 -0.04534276 0.100126445 -0.2639985 -0.3065853
0.38839757 -0.030066554 0.2016689 -0.163793 0.3996003 0.064154185 -0.04625802 0.6140557
-0.118964 -0.30646652 0.09094207 0.011097668 0.20503359 -0.09037164 0.06900727 0.16977835

e2_b f4 [30]
00000000: 212e aa3c 67ae 41bd 6e30 173d e532 55bd
00000010: df1c 68bd e3cf 833d 04fe 633d 55c6 85bc
00000020: fd3b 98bc 3f7a 0bbc 619f f63c 9234 163d
00000030: 9c38 1cbd c9d5 843d 5748 15bb 512b 2b3d
00000040: 545e a73c d036 4abd c0df 643c c6ac b53a
00000050: 98ad 7abd 5350 96bc e9b9 17bc 1f5a 92bc
00000060: 1ce7 2b3c 9f6f 2bbc 814b 19bb 5206 103b
00000070: 6328 69bd 07f3 1dba
0.02077395 -0.047285464 0.03691142 -0.05205049 -0.05666816 0.064361356 0.05566217 -0.016329924
-0.018583292 -0.008513032 0.030105295 0.03667123 -0.038139924 0.06486089 -0.0022778714 0.041789357
0.020430721 -0.04936868 0.013969362 0.0013860695 -0.06120071 -0.018348848 -0.009260633 -0.017865239
0.0104921125 -0.010463624 -0.002339095 0.0021976423 -0.05692328 -0.00060252886

e3_W f4 [30, 13]
00000000: 3adb 363d 793a 21bd b90f 6f3e 22db 0c3d
00000010: 161d 343e ff2b f23d 6818 b23e b848 c73e
00000020: bc3d fb3d c32c 6bbe c533 50be 49aa c0bb
00000030: def4 ebbe aadf 84bd 1448 97be 9574 5abd
00000040: b3c5 57be a48d 53be 3e7e 113e 1bc4 843e
00000050: ba79 123d 110a 4f3e dd1a eabd b964 643d
00000060: 1518 7b3e 6dd7 2abc 57d3 62be 186b 3fbe
00000070: 7076 58bd 11c9 9c3d a84c 21be 224d a6bd
00000080: 18e2 273d aa33 3a3e 38f5 8fbb 9273 5fbd
00000090: ebfa 47be f905 7c3d 2f7e 453e 3c5e b33e
000000a0: 08a2 79be de34 803e 0dec a43e e672 223e
000000b0: f7aa c63d eaff a5bd f650 c43e cb3f f83e
000000c0: 464c d23e 6acc 9d3e 1fdf 7e3e 657b acbe
000000d0: 1766 d4bb b9d7 633c 7bce 763d 806c a43d
000000e0: e95c a83e 8ba1 603e 9f5b 03bf 9fe6 a1bc
000000f0: 90bb 3b3c 88d6 edbd f1eb d63e f8f5 f43b
00000100: d2c2 223d 7875 a7bd 6b85 f03e 76d0 973e
00000110: 4de4 3d3e 6915 ddbe 9773 bc3c 1e94 293e
00000120: b94e 9d3e 61af 9bbe e562 e73e afc0 bfbe
00000130: 248a 75be 773f 4b3e 18f8 84bc 228a 023f
00000140: 06b4 1f3e 32b2 57be 1c6a b6bd 58da 6bbe
00000150: 959a 8abe d3f6 773e 706d 9d3c 6b19 ab3e
00000160: e428 6dbe 3596 fb3e e964 08be 18a9 ad3e
00000170: c8d8 05bd a620 eebc 5950 9e3d 65c4 66bd
00000180: 145e 373d 3e77 05bd 0fea 72be 7e28 60be
00000190: 003d 3e3e 6e6c 673e f839 79bd 3493 9bbe
000001a0: e901 4a3e e8de 91be 2ffe 03be 32a5 cf3d
000001b0: 5186 93be b142 cc3d 245d 6c3e 6ffe ca3d
000001c0: 8d2a 76be bdc4 dc3d 09d8 183e 04e1 a1bc
000001d0: d648 a43e 422a 6d3e 9a5c 393e a871 723e
000001e0: a00c 823d 8911 873d b1c6 95bd 1810 9dbe
000001f0: 5051 903d 6afb a93d ee30 16bf 45e1 4e3d
00000200: 493f 83be 7591 4e3d 6be4 88be e78b dd3d
00000210: 2d81 e03d e2ba 963e 868a ebbc 3baa a63e
00000220: b748 9e3e 919e ad3e e20f 57be 8379 6c3e
00000230: 6a5b 5f3d 6799 d23d df66 823d 74bc c23d
00000240: ca5a e73d bd68 cebd 2c27 09bf 6a81 a43e
00000250: 1136 10be 61ba f43d d777 9abc d27d f8ba
00000260: fdfc 71be 4bf5 32be a0a9 9dbc 73cf d3be
00000270: aee7 be3d 774a 9d3e 8c2d 873e 0943 1dbf
00000280: 8658 3b3e 2483 0c3d 9c91 e9bd d56a 653e
00000290: 6ca0 fc3d a915 cabb 9278 403b a434 a3bd
000002a0: db72 cd3e b08b 643e 80f7 b23e 55c8 ec3c
000002b0: ea15 623e 4112 923e 025a 1e3e 26f0 a5bd
000002c0: 9eae b8be 5fb4 843e 57e9 17bf aed8 8fbe
000002d0: 6a56 8dbd 7969 0abe 9b5b 96bb 3c8f e33c
000002e0: a0c5 17be b508 863d 00c9 b63d ecca b93e
000002f0: 1c4c abbc 5ded 1cbd 82d1 0dbe 50c6 a0be
00000300: 0944 803e e151 cbbd 7220 2ebd 555b 363e
00000310: ceaf 023e b2be ad3e 3949 9dbe fe29 8b3e
00000320: c4d4 b0bd a07d c8be 8358 103e 6ed2 d63d
00000330: 8d01 093f 8de7 0bbe 987f f5bd 92d1 acbe
00000340: 4198 8abe 4588 c03e 7a57 d53c 33aa 033f
00000350: 3da9 c0be a654 ac3d 23a1 4bbe e932 4d3e
00000360: 37b7 133e f6fb e0be 787c 5dbe e649 3e3f
00000370: 7480 003e 0d5e 07bf af86 b7bd a31d 273e
00000380: c296 29be 24d7 b43e 3b25 4f3e f77e 94bc
00000390: 21b6 babd bf36 8dbe 5e46 5fbe d5ba f2be
000003a0: e637 8f3e 1f3b f83e a765 a4be b78d 5ebd
000003b0: 855c 4dbe 395b 7a3e 9800 55bf 57d6 a6bc
000003c0: 34ad ab3e b0eb 473d 4b32 abbc c6c3 363e
000003d0: b735 e23e dee7 963d a524 e7be 7e4d 203f
000003e0: bf15 0dbd 9671 88be bc52 b53c bca7 00be
000003f0: fec8 a13e 8723 90be 897d 7a3e b2f3 863e
0.044642664 -0.039362404 0.23345841 0.03438867 0.1758922 0.11824798 0.34784245 0.38922668
0.12267634 -0.22966294 -0.20332249 -0.0058796746 -0.46085256 -0.06487973 -0.2954718 -0.053333838
-0.2107151 -0.206595 0.14208314 0.25930867 0.03576062 0.20218684 -0.11430905 0.05576012
0.24520905 -0.010427338 -0.22150932 -0.18693197 -0.052847326 0.07655538 -0.15751898 -0.08120181
0.040987104 0.18183771 -0.004393246 -0.054553576 -0.19529311 0.061529133 0.19286416 0.35032833
-0.24378216 0.25040334 0.32211342 0.15864143 0.09700578 -0.08105452 0.38343018 0.4848617
0.41073817 0.30820018 0.24889801 -0.33687893 -0.0064818966 0.013906413 0.06025551 0.08028507
0.32883385 0.21936624 -0.5131168 -0.019763289 0.011458293 -0.11613184 0.41976884 0.007475611
0.039736576 -0.08176702 0.4697679 0.2965123 0.18544121 -0.43180397 0.023004336 0.16560408
0.30724123 -0.3040724 0.45192638 -0.37451693 -0.23978478 0.19848429 -0.016231582 0.50992024
0.15596017 -0.2106407 -0.089069575 -0.2303251 -0.27071062 0.2421525 0.019217223 0.3341783
-0.2316013 0.49138036 -0.13319744 0.3391807 -0.03267744 -0.029068302 0.07730169 -0.05633964
0.044767454 -0.03258442 -0.23722099 -0.21890447 0.18577957 0.22599956 -0.0608463 -0.30385745
0.19727291 -0.28490376 -0.12889932 0.101389304 -0.28813413 0.09973658 0.23082405 0.099118106
-0.2403967 0.10779712 0.14926161 -0.019760616 0.3208682 0.23160651 0.18101731 0.23676169
0.06350064 0.065951414 -0.07313288 -0.3067634 0.07046759 0.082999066 -0.5866841 0.050507803
-0.2563422 0.050431687 -0.2673677 0.108177 0.10962138 0.29439455 -0.028752577 0.3255175
0.30914852 0.3391004 -0.21002153 0.23093228 0.05453054 0.102831654 0.06367277 0.09508601
0.112966135 -0.10078571 -0.53575397 0.32129985 -0.14083125 0.119496115 -0.018855972 -0.0018958396
-0.23631664 -0.17476384 -0.019245923 -0.4136921 0.09321533 0.30720875 0.26401937 -0.6143041
0.18295488 0.034304753 -0.11404726 0.22404034 0.123352855 -0.006167133 0.002936874 -0.07969025
0.4012669 0.22318912 0.34954453 0.02890412 0.22078672 0.28529552 0.15464023 -0.08102445
-0.36070722 0.25918862 -0.59340423 -0.28095 -0.06901248 -0.13516797 -0.004588557 0.02777826
-0.14821482 0.065446295 0.089250565 0.3628763 -0.020910315 -0.038312305 -0.13849452 -0.314013
0.25051907 -0.099277265 -0.04251141 0.17808278 0.12762377 0.3393455 -0.30719927 0.27180475
-0.08634332 -0.39158344 0.14096265 0.10489355 0.5351799 -0.13662548 -0.11987227 -0.3375364
-0.27069286 0.37603965 0.026042689 0.5143158 -0.3762912 0.08414583 -0.19885688 0.20038952
0.1442536 -0.4394223 -0.21629512 0.7433151 0.12549001 -0.52877885 -0.08961236 0.163199
-0.16561416 0.3532039 0.20229046 -0.018126948 -0.091167696 -0.2758083 -0.21804187 -0.47408167
0.27972335 0.48482606 -0.32108805 -0.05433437 -0.20054825 0.24448861 -0.8320403 -0.020365877
0.3353058 0.048808753 -0.020898005 0.17848119 0.44181606 0.07368444 -0.45145145 0.62618244
-0.034444567 -0.2664916 0.022134177 -0.12563986 0.31598657 -0.28152105 0.2446195 0.263578

e3_b f4 [13]
00000000: aab2 d3bc 477f 3d3d e587 14bd 6f03 e03c
00000010: 7ca8 483c 818d c03c b737 383c a429 253d
00000020: a47b e3bc 874c a9bc 1cb3 11bd 7809 ac3c
00000030: 44f7 29bb
-0.02584203 0.04626396 -0.03626241 0.027345387 0.012247201 0.023504974 0.011243752 0.040322915
-0.027768917 -0.020666374 -0.035571203 0.021000609 -0.0025934735

d1_W f4 [13, 30]
00000000: d86c f4bb 422d 75bd da15 693e 1b42 f73d
00000010: 8a30 e0bd af80 803e f720 fc3e e131 d23e
00000020: 0ecc 92be 04cb 7cbe 633e 58be 511c 303e
00000030: 3346 c0be 4aed 1dbe 7fc3 ccbe df9d 54be
00000040: 7393 71be 85c1 afbd ecca 433e 69b2 bc3e
00000050: 7b77 043e c905 013f 9388 2ebe 5570 e43d
00000060: 68a9 9f3e f6cf 673d 0eac a3be 1443 12be
00000070: fbd7 37be 94ca ba3d 5877 e6be 3d3e 43bd
00000080: f50e df3c f446 873e 63de 6a3e d535 0b3e
00000090: ad4d 60be f36f fdbd c1b7 6d3e f07c 403f
000000a0: dd1e cfbe 7650 0c3f 3265 d33e c784 953e
000000b0: 82f9 383e 2767 2cbd 94b6 223f 5644 343f
000000c0: 9c25 4d3f dbed d23e 4882 253e a0f2 34bf
000000d0: a6b8 11bd 0328 f73d 8e0f 3bbf 864a 9b3e
000000e0: 19f6 0b3e 4e5f ba3e 4ccc edbe 3f34 72be
000000f0: 05d1 38be b74e 1bbf eda1 183f aa4c 0cbe
00000100: a03f c93e adae 4f3e 1835 113f 2bd0 1f3f
00000110: 55ff 3f3e 0e3d 29bf f309 76bf 4d01 cb3e
00000120: 9047 863e d7f3 30bd 22d4 2d3f 5749 a8be
00000130: 26ca 8cbe cf9c a33e 97d8 2bbe 280c 153f
00000140: 2810 753c bcb4 a3bd b3ac abbd 7bd7 74be
00000150: a88b 883d 3d49 5a3e f71b 493e 1150 103f
00000160: ca8a 97be 7a5f e13e 33ec 20be 877d 1a3f
00000170: 88a9 4abe 77cc 6ebe 8a81 b53d 4b84 d13d
00000180: 2ce9 053d bc0c 83be 8e31 0ebf bdf3 d3be
00000190: 8cae 08bc ebcb 033e 12b8 21be ed74 c3be
000001a0: 8b68 b83e 66f3 bfbd a11d 54be a45d 443e
000001b0: 0578 57bf 4476 b03d 8fa2 6abf 8c31 b53c
000001c0: c7db 06be 6f44 fb3c 6428 833e e32a 39be
000001d0: 2044 063f 85da b33e dc70 a93e 4c10 003f
000001e0: 702a 9e3e 3417 743e d61a 8a3d 55f3 1a3e
000001f0: accc 63be 0a41 93bf f7a9 7f3d e043 6b3d
00000200: fe86 6ebe ef47 f63e 7240 bdbe f132 0a3d
00000210: 5a54 d93e 4c17 963e 1723 193d d7db 1bbe
00000220: 5efc 173f db90 923e 8edb e13d 4d0d 363e
00000230: 0be8 b4bd 515f 803d 7f08 e63d ef19 fa3e
00000240: da35 e73c af23 c3be 2cf2 3ebf bf04 2d3e
00000250: 6468 a1be 417a f83d d6a9 2fbe 2277 7b3c
00000260: 04c7 b5be 988a 01be 02e9 1a3e 8362 ffbe
00000270: 7bd5 e93d d46b fa3b 2673 06bf c5a8 63bf
00000280: 8161 f73d b2d2 3bbe 2cac 73be 932e febc
00000290: 76d0 353f a0b6 7d3d ab88 643d 9d95 0bbf
000002a0: 16a9 303f 5e34 9a3e a99b 073f 60d3 a8bc
000002b0: ddf2 e13e 4f53 c63d 62e9 3b3e 4bd3 7cbe
000002c0: 95bb 1bbf 2006 c43e c94a 42bf 5c35 2dbd
000002d0: c75a d3bd 0b89 fcbe c6e3 a1be 1c1c 423e
000002e0: 3656 b5bd f040 e83e 767f abbd 3df1 5e3e
000002f0: 1529 0d3e 5aef 4cbe a365 49bf da4e 1e3f
00000300: 4b86 ce3b 1ae5 10be ef51 0e3e 2c4c 943e
00000310: 5689 b4be e601 95be 195e 9cbd 0ee1 8f3e
00000320: 9f88 51be a338 c9be 1c21 d3be 0722 6c3e
00000330: 2740 bb3e d55a 243d aa35 833d 1af8 08bf
00000340: 7680 3dbe 1870 44b9 dd04 cbbb aeb6 613f
00000350: e7a6 aabe ff7a ae3e 77fe 343d 476f 923e
00000360: 7dbb 00ba 856e 13be 5ca5 cdbe babf ac3f
00000370: c603 883e 81b9 3fbf ccfc c8be 5e03 a93d
00000380: 0694 cabd bf45 1d3f 2c0c bd3e b45a f3bd
00000390: 4831 08be bea9 e9be 527f 19be 34c9 21bf
000003a0: 500c 063f 909c 133f b1af 12bf 3e34 c9be
000003b0: 7aa9 36bf da52 c1be b6f4 9bbf b4d9 c6be
000003c0: d6f8 fb3e 99d1 e1bc 4c4f 8b3d 6a37 4cbd
000003d0: 80a0 123e 1c11 783e a516 b53e 3439 58be
000003e0: a152 02be 045a b9bd 1423 803e fe81 25be
000003f0: e765 9f3e e524 f83e 001e 14be e98f 593d
-0.0074592642 -0.059857614 0.22762242 0.120731555 -0.10946758 0.25098178 0.492439 0.4105368
-0.28671306 -0.2468682 -0.21117549 0.17198302 -0.37553558 -0.1542255 -0.39992902 -0.20763348
-0.23591404 -0.08581833 0.19120377 0.36854866 0.12936203 0.5039945 -0.17044286 0.11154238
0.31183934 0.05659481 -0.31967205 -0.14283401 -0.17953484 0.0912067 -0.45012927 -0.047666777
0.027228812 0.2642132 0.22936396 0.13594754 -0.21904631 -0.12374868 0.23214628 0.7519064
-0.40453234 0.54810274 0.41288143 0.29202864 0.1806393 -0.04209056 0.6355984 0.7041677
0.8013551 0.41197094 0.1616298 -0.70682716 -0.035576485 0.120681785 -0.7307061 0.30330294
0.13668098 0.36400837 -0.4644493 -0.23652743 -0.18048485 -0.60666984 0.5962208 -0.1370112
0.39306355 0.20281477 0.5672164 0.62427014 0.18749745 -0.6610879 -0.9610893 0.3964943
0.26226473 -0.043201294 0.67901814 -0.32868454 -0.27497977 0.31955573 -0.16781841 0.58221674
0.014957465 -0.07993457 -0.08382549 -0.23910324 0.06667262 0.21317 0.19639574 0.5637217
-0.29598075 0.44018155 -0.15715103 0.6034779 -0.19791234 -0.23320185 0.08862598 0.10230311
0.032693073 -0.25595653 -0.55544364 -0.41396895 -0.0083423965 0.12870757 -0.15792874 -0.38175145
0.3601726 -0.093725964 -0.20714428 0.19176346 -0.8416751 0.086163074 -0.91654295 0.022118352
-0.13169776 0.03067228 0.25616753 -0.18082766 0.524477 0.35127655 0.33093917 0.5002487
0.30891752 0.23836976 0.067434 0.15131886 -0.22246045 -1.1504223 0.06241795 0.057437778
-0.23293683 0.48101756 -0.3696323 0.033739988 0.42447168 0.2931465 0.03738698 -0.15220581
0.59369457 0.2862614 0.11028205 0.17778511 -0.08833321 0.0626818 0.11232089 0.4884791
0.02822392 -0.38113162 -0.74588275 0.16896342 -0.31524956 0.12132693 -0.17154631 0.015348228
-0.355034 -0.12650526 0.15127948 -0.49879846 0.11417671 0.0076422486 -0.5251945 -0.88929397
0.12079144 -0.18342093 -0.23796147 -0.031028068 0.7102121 0.061941743 0.0557944 -0.54525167
0.69008005 0.30118078 0.52971894 -0.020608604 0.44130602 0.096838586 0.18350747 -0.24689977
-0.608331 0.38285923 -0.75895363 -0.042287216 -0.10320049 -0.49323305 -0.3161909 0.18956035
-0.08854334 0.45362043 -0.083739206 0.21771713 0.13785203 -0.2001318 -0.7867071 0.6183907
0.00630263 -0.14149895 0.13898443 0.28964365 -0.3526103 -0.2910301 -0.07635135 0.2810139
-0.20462273 -0.39301023 -0.41236198 0.23059855 0.36572382 0.040125687 0.0640672 -0.5350357
-0.18506035 -0.00018733775 -0.006195648 0.8816937 -0.3333046 0.34078214 0.04418799 0.28600523
-0.00049107504 -0.14397629 -0.40165222 1.349601 0.2656538 -0.7489243 -0.3925537 0.08252595
-0.098915145 0.6143455 0.3692335 -0.118825346 -0.1330005 -0.45637316 -0.14989975 -0.63197637
0.5236254 0.5766077 -0.57299334 -0.3929767 -0.7135235 -0.37758523 -1.2184055 -0.3883797
0.49213284 -0.027565764 0.06802234 -0.049857534 0.14319038 0.24225277 0.3536884 -0.21115571
-0.12726833 -0.09050372 0.25026762 -0.1616287 0.31132433 0.48465648 -0.14464569 0.05311576

d1_b f4 [30]
00000000: bcc6 69bd 40f7 debc 11bb 8eb9 6437 a03c
00000010: e9c7 253e 3a48 453d f0de 10bc 9b68 813c
00000020: 8e9b 9dbd 862e de3d 1533 c73d 36a6 dbbc
00000030: 8c6b 43bd a552 93bd 086c 65bd c631 a93d
00000040: 7c8b fd3c 5e0c 7abd 0913 103d 75cd 2abd
00000050: 5c3b 0f3e ba6d 20bd 305b 883d 0448 57bd
00000060: ff25 793c 5035 61bd 74a9 0ebd 22c6 c7bc
00000070: 2345 b7bb cd54 d4bc
-0.057074293 -0.027217507 -0.00027223726 0.019557662 0.16189541 0.048164584 -0.008842215 0.01579695
-0.07695685 0.108487174 0.0972654 -0.026812654 -0.047709987 -0.071934976 -0.05601123 0.08261447
0.0309503 -0.06104695 0.035174403 -0.041699845 0.13987488 -0.039167143 0.06658018 -0.052558914
0.015206813 -0.054982483 -0.03482957 -0.02438647 -0.0055929585 -0.025919342

d2_W f4 [30, 30]
00000000: 59f8 043d ca05 28bd fcb5 e73d a7e5 9cbc
00000010: cd21 ddbd 96c9 fb3d 53a5 ad3e 414a 463e
00000020: 1366 6dbe ac72 bcbe 5539 4ebe b480 793b
00000030: a522 0ebf e231 debd ecb4 a4be 38bc 08be
00000040: 2a77 37be bbde e6bd 01b6 863d f12d 603e
00000050: a0ef 07bd bda4 b43e e587 f7bd 612b c33d
00000060: 897a 653e ffd9 c63c 4052 1cbe 6c39 8abe
00000070: 9c0a f2bd 8490 353d b642 9cbe bd32 3fbd
00000080: 8ff6 a6bd f668 a33d 8766 0a3e 21ab d93d
00000090: 7005 f2bd 1a98 75bd 1199 433e 0be1 c63e
000000a0: edef 93be df9b b63e 1c77 cf3e 5d42 1d3e
000000b0: 3456 653d 66bc e3bc 89fd d83e 63ee ee3e
000000c0: 83c2 d63e d0c6 913e 74bc 843e 2448 64be
000000d0: c4da 953d 7f1e 1f3e e3d9 98be a4f1 203e
000000e0: d9e2 333e 5cd5 5f3e 8a69 71be 55f8 4bbe
000000f0: 6965 90be c1ed ebbe 784f d83e 9460 29be
00000100: faff 463d 06e8 81be 5de2 e43e fa41 9d3e
00000110: 0cd0 cb3d 9eab 14bf 1281 83bd 6a1f 133e
00000120: 619d 8d3e 54a5 12be 20a0 ea3e f90d 7bbe
00000130: 3397 13be 4ae8 7b3e e6dd 73bc 2bd5 073f
00000140: 8f32 4a3d fbb5 a8bd cddd 843d 7e06 f9bc
00000150: 108a 893d 4fee f93e 74d9 393e 8eb9 b93e
00000160: 3954 f9bd e183 c23e 4cbe 0bbe 0077 b33e
00000170: 0d0b 97bd 75f1 54be f557 c63d ab47 843e
00000180: 5d1c 0abd 0192 91be 0c8f c2be 3261 a7be
00000190: 16ee 95bd 2c17 743d 2c87 e33c 0e97 13be
000001a0: 28e0 343e 19a0 57be c9c1 7abe 7618 2b3e
000001b0: 91ab 09bf 8cf8 103e 5b0d 33be fdbe 563e
000001c0: e155 53bc c9c0 7f3e f228 7d3e 050e e8bd
000001d0: 36ff e53e 6288 853d dc55 a43e ad98 a13e
000001e0: e254 fe3c d01c a33e 81a0 623c cd9d bcbe
000001f0: 975d 2abe 92c2 583d 2d10 d0be bd9b 973e
00000200: f143 073d 20df cebd f943 1ebf ef94 fbbd
00000210: 599d 7cbe 6d59 3b3f 3ca0 96bd 9155 473e
00000220: 19fa 123e fa8f 023f 1258 1cbf 4dbc ac3e
00000230: c66e 243d 2c5b 993e 3e50 05be 5b51 923d
00000240: 4d35 fcbd 372e d0be 5e15 22bf b9d4 263e
00000250: 8486 c0bc 7ece a43e 0f6f 99be fbfe 403e
00000260: 8d2c 39bc 39be 22be 63a4 d7bd 42a0 e8be
00000270: 707f 3f3c b742 acbe 09f0 693e 9128 c7be
00000280: 70ac e8bd 4368 b8bd cb24 1e3e fc2b 26be
00000290: b7d4 d03e 50ba e6bd 013d 7c3e 4f6b ebbd
000002a0: 233a dd3e c4f1 2e3e ab7d 0f3e 4ce9 203e
000002b0: 3531 643e 70b6 fb3e 7273 70be 4a21 3c3e
000002c0: e21f c3be 00f2 4f3e baa8 183f 4f33 29be
000002d0: a7b4 f63d 564a 8dbe 95cb e23d b767 e8bd
000002e0: 3b91 4abd a749 313e 847b 40be 83e3 9e3e
000002f0: b5a2 523d d1cd b8bd 7097 1abf 0e81 b7be
00000300: 1c42 a43e 8a26 8abd 2676 aebd dfd5 ec3e
00000310: 0799 d7be 3cb8 27be abdd 29be c742 143e
00000320: 02d5 513e 9c33 80bd b898 a8be d636 693e
00000330: 2ffa a83e 2cbd bf3c 74b9 e33d e1cd 91be
00000340: 6dc5 1dbc 1019 ae3e 1bfd 37bf fa3e 103f
00000350: 5e2a 87be 5580 aa3d c8c8 a23d 92dc 6b3e
00000360: 3f67 833d 245c 71be d49f 7cbe 93c8 4f3f
00000370: 2fa6 24be 55b7 0fbf c569 ffbd 6822 683d
00000380: 235e 11be 116f c43e ca08 f83d 0df9 d3bd
00000390: 17bc 38be 2009 70be 1dea fc3b b0e8 86be
000003a0: 32fb bf3e 38ac 013f 37c6 23be dfd9 153e
000003b0: 607c c8be 67cc c3be f0f3 2abf 456d 99be
000003c0: 0c73 ab3e f885 30bd 353b 453e 0348 01be
000003d0: 0ad5 f83e 82b0 523d 4009 d6bd 3a58 1f3f
000003e0: f193 abbd efb1 a0be 4b06 6d3d f948 24bc
000003f0: 16d7 903e c845 73be 80c3 543e 66c4 543e
0.032463405 -0.041021146 0.11314008 -0.019152476 -0.107974626 0.12294309 0.33915195 0.19364263
-0.2318347 -0.36806238 -0.20139058 0.0038071098 -0.55521613 -0.10849358 -0.32169282 -0.1335305
-0.17916551 -0.11272951 0.06577683 0.21892525 -0.03318751 0.35281935 -0.12086467 0.09529758
0.22410025 0.02427387 -0.15265751 -0.26996934 -0.1181843 0.044327274 -0.30519646 -0.046679247
-0.08152496 0.07979004 0.13515674 0.106283434 -0.11817443 -0.05995951 0.19101359 0.3884357
-0.28893986 0.35665795 0.4052056 0.15357347 0.055990413 -0.027799796 0.42380932 0.4666625
0.41945276 0.28471994 0.25925028 -0.22293144 0.07317117 0.15538977 -0.29853734 0.15717179
0.17567004 0.21858734 -0.23575416 -0.1991895 -0.2820237 -0.4607983 0.4224813 -0.16540748
0.048583962 -0.25372332 0.4470395 0.307144 0.09951791 -0.5807437 -0.064211026 0.14367452
0.27659133 -0.1432088 0.4582529 -0.24517049 -0.14413147 0.2460033 -0.014884448 0.53059644
0.049364623 -0.08237835 0.06487618 -0.030398604 0.067157865 0.48814628 0.18149358 0.3627438
-0.12174267 0.3799124 -0.13646811 0.35051727 -0.07375155 -0.20795234 0.09684745 0.25835928
-0.033718456 -0.28431705 -0.3799976 -0.32691342 -0.07320802 0.05959241 0.027774416 -0.14413092
0.17663634 -0.21057166 -0.24487986 0.1670855 -0.53777415 0.14157313 -0.17485563 0.20971294
-0.012898893 0.24975885 0.2472265 -0.11330799 0.44921273 0.065201536 0.32096756 0.31561795
0.031046335 0.3185792 0.013832212 -0.36839142 -0.16637264 0.05291993 -0.4063734 0.29611006
0.03302378 -0.101011515 -0.6182247 -0.12284266 -0.24669398 0.7318333 -0.07354781 0.19466235
0.14353217 0.5100094 -0.61071885 0.33737412 0.040144704 0.2995237 -0.13018891 0.071444236
-0.12314854 -0.4066026 -0.63313854 0.16292085 -0.023501642 0.3218879 -0.29967543 0.18847267
-0.011302126 -0.15892877 -0.10529401 -0.45434767 0.011688098 -0.3364465 0.22845472 -0.38898137
-0.11361015 -0.09004261 0.15443723 -0.16227716 0.4078729 -0.11266005 0.24632646 -0.11495077
0.43208417 0.17084414 0.14012782 0.15713996 0.22284396 0.49162626 -0.23481539 0.18372074
-0.38110262 0.2030716 0.59632456 -0.16523479 0.120461755 -0.27595776 0.110739864 -0.11347907
-0.04945491 0.17313252 -0.18797117 0.31032953 0.0514247 -0.09023631 -0.60387325 -0.35840648
0.32081687 -0.06745632 -0.08518629 0.4625692 -0.42108938 -0.16378874 -0.16588466 0.14478599
0.20491412 -0.06259844 -0.32929015 0.22774825 0.33003375 0.023405634 0.11119357 -0.28477386
-0.0096295895 0.34003496 -0.71870583 0.56346095 -0.2639951 0.08325259 0.07948452 0.2303336
0.06416177 -0.23570305 -0.24670345 0.81165427 -0.16079019 -0.5613912 -0.12471346 0.056673437
-0.14196067 0.38365987 0.121110514 -0.10350237 -0.180405 -0.23440981 0.007718338 -0.263494
0.37496334 0.5065341 -0.15993582 0.14633892 -0.3915739 -0.38241884 -0.6677847 -0.2996618
0.3348621 -0.043096513 0.19260867 -0.12625127 0.48600036 0.051437862 -0.10450983 0.62244
-0.08377827 -0.31385753 0.05786733 -0.010027164 0.28289098 -0.23757088 0.20777702 0.20778045

d2_b f4 [30]
00000000: da95 c3bd 9aed 5e3c 79c4 88bc ab28 79bd
00000010: c69f 403e 3f1b c73c a264 183e 4939 60bd
00000020: 962d 293b ffb3 dc3c 7531 1ebc 6229 3dbd
00000030: f06e d13c adb9 72bd 6f3e 62bc 0d7c 773a
00000040: 42e9 cd3c 9ac9 2cbd fc65 4abd 149a 61bd
00000050: a66d a33e 05c1 c83c 419b 673d 8fe1 5abd
00000060: 0721 e83c b9c6 703d b27e e33a 8fb7 42bc
00000070: 16ce 033e 97cb 0fbd
-0.09550066 0.013606453 -0.016695248 -0.0608298 0.18810949 0.024304984 0.14882138 -0.05474213
0.0025814525 0.026941298 -0.009655346 -0.046182044 0.025565594 -0.059259105 -0.013808831 0.0009440787
0.02513564 -0.04218445 -0.049413666 -0.05507858 0.31919593 0.024506101 0.056544546 -0.053437766
0.028336061 0.058783267 0.0017356484 -0.011884584 0.12871584 -0.035106268

out_W f4 [30, 10]
00000000: d190 a23e 5bf0 a53d f3b2 8e3c c3b9 efbd
00000010: 567a 98be 1ed7 a9be a50d 64be 9c47 4f3d
00000020: 4fb9 1c3e 2c41 d63e e83a bd3e 5477 cebd
00000030: fd19 503e 371e 03bf e56d b0bd 9e20 16be
00000040: 176d 8d3e 04f8 c63c 6c13 cf3d d2ba abbd
00000050: 160c edbe f76e 63be aef1 f93d bfdb 723d
00000060: cd81 6c3c 2459 b0bd 8dc3 a83e 6257 b53e
00000070: 3a84 1d3e a397 d03c d338 973d f661 14be
00000080: 776c b3be ee13 de3d 211a 4abd a478 61be
00000090: 1cbb a0bd d98b 713e affc 863e 23db e5bd
000000a0: f18b 563c aa78 dcbd 3dda d3bc 66aa 07bd
000000b0: c426 2abd b50a 353e fae5 8ebe eb7a 2b3d
000000c0: 18ce e4be ea75 de3d 6091 063e 8b97 5fbe
000000d0: 1c18 823e 908e aabe 204c e5bd 9b8f b1be
000000e0: dd9c 19be 9308 2c3e 0d8c 8cbe c698 b4be
000000f0: 8ac9 f0be 3eaf 93be dc06 0dbe 457e f33d
00000100: 8777 433d 44af 813d 22c1 bbbe 40e3 0e3e
00000110: fa44 b0be 4aa5 063e 91d7 db3b 3162 9c3e
00000120: 8425 94bd 07e2 513e 2c5f 2dbd 3849 4bbd
00000130: a817 483d caf1 b13e a839 b53e d067 84bd
00000140: f863 673e 3003 0c3c ba79 023d ffa4 793e
00000150: 5464 1dbd 6a1b 283e cdac c13d 7cd2 953e
00000160: f288 a2be 9c13 0f3e 9849 d13e 7cb1 ab3e
00000170: 0a7b 9dbe 370d 8b3e e2ec cc3e ec34 e13e
00000180: f0b0 42be 873f 9e3e 27b3 eb3d d366 943e
00000190: a5ce 873d 0592 2bbe 1d84 883e bbc9 a93e
000001a0: d301 5fbd d775 05bd ed84 2e3d f315 9f3e
000001b0: c74e 80be 7d9a 113e ac7a fb3d 74fc a3be
000001c0: e8e6 613e 9489 adbe 2024 633e 38e2 4f3c
000001d0: 6b93 b23e c1ad c1be cb21 4b3e 4028 b6be
000001e0: c4eb 2dbe 4c4c b9bc 5a50 aa3e 2a22 5e3e
000001f0: aae0 2ebe 885b 85be ef76 673e a2ed 89be
00000200: 14bd a2be b45e 3ebe e275 c53d 5a9f ed3d
00000210: c3dd 6d3e f4ea 013e f2f8 37be 4d1b f2bd
00000220: 1de4 433e a445 623d a6d5 a43e 7a62 f2bd
00000230: cb5b 5d3d d4a5 9f3d af7e 853e 1311 86be
00000240: 5b35 a9bd 6667 9e3e 96b1 b9be 23c7 743e
00000250: 1d4c 9dbd 1581 793e 0eb4 edbe 8890 2bbe
00000260: 1de9 d4be 773e a13d 92e1 29be 8105 983d
00000270: b2ee 863e 8c30 bcbe 9227 073e e5d9 bfbe
00000280: 3bb2 f33d b52c a6be 7584 f6bd a13d bd3e
00000290: 18e1 a13e 772a 1abc c729 283d 0b89 993d
000002a0: 92ab 38be 4423 753e 77b8 47bc fa23 a93e
000002b0: 9b2f f6bd 376b 2ebe 0ca4 7c3e d12b ae3e
000002c0: ac98 eb3d ff8c 9e3e e770 9e3e 7c89 1c3e
000002d0: fc9d 9d3e dd1e 24be 6a19 7cbe 7e59 273e
000002e0: 2fa2 3b3e 2467 72be ab3b 81bd df1f 8d3e
000002f0: a2de d63b 2c48 5e3d 9194 8fbe 8e02 193d
00000300: 5fc9 31bb 39c4 56be 85cd b23e 062a b1bc
00000310: 7735 d8be fc75 1a3e bcfd af3e 5681 803d
00000320: 0386 38be bc5d ccbe 339a ae3d f3e5 1e3e
00000330: 1e31 d03e 36e3 b83e 83ff 613e 2692 00be
00000340: 9cd7 c5bd f96f 29be 9fa2 d5bd 9587 27be
00000350: c40b 19bf 49b6 3cbe ede0 1fbe 9c6b d03d
00000360: e62a 933e c678 213e eacc cb3e 38ae a3bd
00000370: 6124 6e3e eeb7 b8be b7aa d9be 44cb bbbe
00000380: 6c14 6d3e 60ec ff3c 71c5 35bd b2bb b0be
00000390: e293 94bb d9c1 1abe 1e1d 353d ac0f ce3d
000003a0: 00e4 21be 3060 f83d 287f acbe 787f 06be
000003b0: 6ad6 b1be 90ee 0e3c 50e8 5ebd dae9 043f
000003c0: e129 acbe 7485 303e 3631 573d b1ea 55bd
000003d0: 3914 893e c195 4d3e f2fb 183e 59f5 c83e
000003e0: 0a09 4abe fbd2 0d3e b35a 3ebd a6c9 9abd
000003f0: d1d1 dd3e cd6e 6b3e 5376 213e 3666 003d
0.3175111 0.08102485 0.017419314 -0.11705353 -0.29780835 -0.33171934 -0.2227083 0.0506054
0.15305065 0.41846597 0.36959004 -0.10081354 0.20322414 -0.5121798 -0.08614711 -0.1466088
0.2762229 0.024288185 0.10111126 -0.083852425 -0.46298283 -0.22210298 0.122043 0.059291597
0.014435244 -0.08610752 0.32961693 0.3541823 0.15382472 0.025462931 0.07383885 -0.14490494
-0.3504369 0.10843645 -0.049341325 -0.22018677 -0.07848188 0.23588504 0.26364657 -0.11223438
0.013094888 -0.10765202 -0.0258609 -0.03312149 -0.041540876 0.17679866 -0.27909833 0.04186527
-0.44688487 0.10862334 0.13141394 -0.21835153 0.2540902 -0.33311892 -0.1119616 -0.34679875
-0.15001245 0.16800146 -0.274506 -0.35272807 -0.47028762 -0.28844637 -0.13772148 0.118893184
0.047721412 0.063322574 -0.36670786 0.13953876 -0.34427625 0.1314899 0.006709047 0.30543664
-0.07233718 0.20496379 -0.04232709 -0.049630374 0.048850685 0.34754783 0.3539555 -0.06465113
0.22596729 0.008545682 0.03185437 0.24379347 -0.03842576 0.16416708 0.09456787 0.2926215
-0.31745106 0.13972324 0.4087646 0.33533847 -0.30757934 0.2715852 0.40024477 0.4398569
-0.19012809 0.30907843 0.1150878 0.289847 0.06631211 -0.16754921 0.26663294 0.3316172
-0.0544451 -0.032583084 0.042607237 0.31071433 -0.25060102 0.14219089 0.12279257 -0.32028544
0.2206074 -0.33894026 0.2218175 0.012688212 0.34878096 -0.37827876 0.1983711 -0.35577583
-0.16984469 -0.022619389 0.33264428 0.2169272 -0.1707789 -0.26046395 0.22603963 -0.26939112
-0.3178488 -0.18590814 0.09641625 0.116026595 0.23229127 0.12687284 -0.17966059 -0.118216135
0.19129987 0.055242196 0.3219425 -0.11835189 0.05404262 0.07795301 0.26073214 -0.26184902
-0.0826213 0.30938262 -0.362683 0.2390409 -0.07680533 0.24365647 -0.46426433 -0.16754353
-0.415841 0.07873242 -0.16589954 0.07422925 0.26353985 -0.36755788 0.13198689 -0.37470928
0.11899229 -0.32455984 -0.12036983 0.36961082 0.31617045 -0.0094095385 0.041055467 0.07496842
-0.18034199 0.23939234 -0.012189976 0.3303526 -0.12020799 -0.17033087 0.24671954 0.34017804
0.11503729 0.30966946 0.30945513 0.15286821 0.30784595 -0.16027398 -0.2461907 0.16342732
0.18323587 -0.23672158 -0.06310209 0.27563378 0.0065573016 0.054268047 -0.28043035 0.037355952
-0.0027128083 -0.2097329 0.34922424 -0.021626484 -0.4222829 0.1508407 0.3437327 0.06274669
-0.18019871 -0.39915264 0.08525505 0.15517406 0.40662473 0.36110848 0.22070126 -0.12555751
-0.09660265 -0.1654662 -0.10431408 -0.16360314 -0.5978358 -0.18428911 -0.15613146 0.10176775
0.28743666 0.15768728 0.39804775 -0.07992214 0.23256065 -0.36077827 -0.42513058 -0.36678517
0.23152322 0.031240642 -0.044377748 -0.345182 -0.0045342306 -0.1511301 0.04421722 0.10061583
-0.15809631 0.12127721 -0.33690763 -0.13134563 -0.34733897 0.00872387 -0.05442077 0.5191933
-0.336257 0.17238408 0.052537166 -0.052225772 0.2677324 0.20076658 0.1493986 0.39249685
-0.1973001 0.13850014 -0.046473216 -0.07557993 0.4332414 0.22991486 0.15767793 0.031347476

out_b f4 [10]
00000000: 3293 29bd 01f0 ea3c 7a48 d1bd 6f53 b93c
00000010: cb24 ecbc 1e30 74bc f4b7 12bd 4e4f 72bd
00000020: 4b37 66bd 3b74 7bbd
-0.041400142 0.028678896 -0.10218902 0.022622792 -0.028826138 -0.01490405 -0.035819963 -0.059157662
-0.056205075 -0.061390143
